src/rec_system/model/item_embedding.pth (torch, 1472 bytes, 1 tensors)

weight f4 [10, 16]
-0.80161285 0.87944055 1.8841141 -1.9940583 1.2442219 0.034322705 0.5024267 -0.937405
0.38576636 -0.45312387 0.6642857 0.0108945 -0.06187742 -1.5248016 0.5460591 -1.459391
0.4341527 -1.48845 -0.6094999 0.06747392 0.8405711 -1.3291466 -0.39980823 -0.25991374
-0.21491042 0.14751506 -0.32618093 -1.6376351 0.1908675 0.17722575 -0.05161258 -0.364836
0.7337099 0.6052439 -1.3903813 -1.5303483 -0.75713277 -0.35819465 1.0791361 0.03276327
-0.5489446 0.36766922 -1.0679091 -0.31322184 -0.41155493 -0.40478498 1.6083678 0.36061248
-0.37986723 -0.55008864 -0.38435924 0.2717124 1.3606063 -0.7634414 -0.33335483 2.3257358
-0.16575676 1.0609127 0.13851269 -0.11202867 -0.93679196 0.055601247 0.50901854 0.68444407
0.6577501 -0.25838175 0.9573517 1.2505028 -0.20894037 1.6627575 0.8464523 -0.1310192
-1.2303395 -0.82004255 -0.3973113 0.77604175 -0.86293334 0.31075656 -0.17246777 -1.0482583
-0.86722726 -0.6101982 0.78213704 0.57006574 -0.8911206 -0.45545647 1.2484998 -1.8961818
1.0431806 0.44387603 -0.13052237 0.09727413 0.76420283 0.8564063 -0.3622834 -0.04534861
-1.007385 0.7606586 -0.55038035 -0.812504 2.618234 -0.09538112 -0.46699977 -1.7015607
0.40959147 0.5041114 1.2267128 0.29949355 0.64079684 1.3479282 -0.26287097 0.056858495
0.3893535 -0.9945805 -0.33017018 -0.20449866 -1.0986872 -0.3716652 -0.3802626 -0.7557596
0.25697842 -2.2339742 -2.4867656 -0.38358164 -2.0749187 -1.3590477 0.38339734 -0.33726844
-0.9372872 -1.1025603 0.219717 1.1028295 -0.75418866 -0.23809361 0.44043988 -0.23152295
2.535211 -0.20293646 1.934411 -0.6661263 -0.42294797 1.0165113 0.5610686 0.68053293
-0.049574163 -0.9315527 -0.5505945 -0.7227706 -0.38551795 -0.3278768 -0.04450025 -0.47456574
-0.975726 -1.3956982 -0.16374566 0.595816 -0.39124435 -0.79416275 1.8872926 -0.492551
00000000: 8036 4dbf 0423 613f a72a f13f 4d3d ffbf
00000010: aa42 9f3f f795 0c3d 099f 003f c6f9 6fbf
00000020: 2b83 c53e daff e7be a10e 2a3f d87e 323c
00000030: 2d73 7dbd b32c c3bf 87ca 0b3f 53cd babf
00000040: 4349 de3e 8885 bebf 2f08 1cbf c42f 8a3d
00000050: ab2f 573f 7a21 aabf aab3 ccbe 6a13 85be
00000060: 7a11 5cbe 300e 173e 3001 a7be 079e d1bf
00000070: c572 433e ab7a 353e b667 53bd c9cb babe
00000080: 69d4 3b3f 44f1 1a3f 04f8 b1bf 74e2 c3bf
00000090: 74d3 41bf 4a65 b7be 2221 8a3f c732 063d
000000a0: a287 0cbf 243f bc3e 3fb1 88bf 9d5e a0be
000000b0: 54b7 d2be fa3f cfbe ffde cd3f 33a2 b83e
000000c0: f57d c2be 9cd2 0cbf bcca c4be e31d 8b3e
000000d0: 5928 ae3f e570 43bf 7cad aabe dbd8 1440
000000e0: 24bc 29be fdcb 873f 45d6 0d3e 4a6f e5bd
000000f0: 99d1 6fbf 22be 633d 0a4f 023f ba37 2f3f
00000100: 5062 283f 9d4a 84be 0015 753f 7a10 a03f
00000110: 77f4 55be 3dd5 d43f 19b1 583f e629 06be
00000120: c47b 9dbf 4fee 51bf 636c cbbe acaa 463f
00000130: 33e9 5cbf 7c1b 9f3e 649b 30be 542d 86bf
00000140: 9b02 5ebf f335 1cbf 223a 483f d4ef 113f
00000150: 7b20 64bf 9731 e9be d7ce 9f3f 16b6 f2bf
00000160: f186 853f b843 e33e a8a7 05be a937 c73d
00000170: cca2 433f 713d 5b3f 367d b9be 77bf 39bd
00000180: fef1 80bf 86ba 423f bae5 0cbf 4300 50bf
00000190: 2591 2740 2d57 c3bd 981a efbe becc d9bf
000001a0: f9b5 d13e 720d 013f ed04 9d3f 3857 993e
000001b0: 430b 243f e988 ac3f 0697 86be 74e4 683d
000001c0: 5859 c73e d49c 7ebf 110c a9be 1968 51be
000001d0: c8a1 8cbf e74a bebe c8b1 c2be 7679 41bf
000001e0: ad92 833e 6ff9 0ec0 2b27 1fc0 d064 c4be
000001f0: 78cb 04c0 46f5 adbf a84c c43e 73ae acbe
00000200: 0ef2 6fbf b220 8dbf 7efd 603e 8429 8d3f
00000210: 8212 41bf d0ce 73be 5681 e13e 5a14 6dbe
00000220: e640 2240 93ce 4fbe c89a f73f 4187 2abf
00000230: a38c d8be 0b1d 823f 31a2 0f3f 6837 2e3f
00000240: 470e 4bbd 3d7a 6ebf c3f3 0cbf 7e07 39bf
00000250: 9c62 c5be 78df a7be e545 36bd 48fa f2be
00000260: 2ec9 79bf 3da6 b2bf f1ac 27be 6687 183f
00000270: 2e51 c8be 404e 4bbf ce92 f13f a52f fcbe
