src/rec_system/model/saved_model.pth (torch, 44156 bytes, 15 tensors)

proj.inputs.item_content.weight f4 [11, 16]
-0.29419008 -0.34880456 0.44048896 -0.41637745 0.06971583 -0.2087326 -0.44700804 0.18160388
0.10388034 -0.2645059 -0.46346495 0.024694286 -0.43639863 -0.064102784 0.3148138 0.28465742
-0.34533802 0.12881944 0.13829535 0.2764687 0.022787286 -0.122998536 -0.46250668 -0.6346179
-0.31717074 -0.19557124 0.10282548 0.37492573 0.3629343 -0.32189256 -0.06958774 0.059039783
0.31517288 -0.06563762 -0.20550723 -0.29971287 -0.025526755 0.19781537 0.14021608 -0.0884707
-0.43367854 -0.19521843 -0.084640734 -0.12886602 0.2545851 -0.21716258 0.4216426 -0.2825524
-0.47871083 0.19449213 -0.066156074 -0.090508774 0.16758211 -0.026651638 0.46022502 0.16792838
-0.3688174 -0.30652732 -0.03192843 0.115305975 0.16919935 -0.39735654 0.34145653 -0.3339309
0.11111751 0.3512054 0.1909129 -0.38284236 0.044513457 -0.3815636 0.07279284 0.07825339
-0.21618535 -0.16676912 0.010703905 -0.123379864 0.07600208 -0.27360505 0.04537118 0.44519886
-0.072089866 0.38933152 -0.068575114 -0.39666748 -0.24160156 -0.18452974 0.29663044 -0.29769987
0.005109316 0.40065518 -0.09934164 -0.075606205 0.3195737 0.05399232 0.55155975 -0.18244016
0.1530458 -0.39362276 0.48454708 0.29631466 0.39412543 0.5687742 -0.17196876 -0.12313917
0.099225335 0.30585328 -0.52849025 -0.007546753 -0.053304814 -0.015200605 -0.073440954 0.22315288
-0.11798535 -0.29978377 -0.11998088 -0.19990203 -0.066031404 0.6173715 -0.4948122 -0.3545492
-0.061315317 0.34771863 0.07459493 0.29360735 -0.104089186 -0.47867933 0.31420204 0.059518155
0.19044577 0.30578294 0.2687401 -0.5186965 0.2940225 0.30059525 -0.38224626 0.6633036
-0.26173973 -0.06548427 -0.4771219 -0.35325104 0.0924097 -0.4001127 -0.3552645 -0.08700869
-0.37268177 -0.10958877 0.21850812 -0.19258744 0.2740522 -0.22187017 -0.2638051 0.418014
0.052663356 0.07700466 0.34937617 -0.56858355 -0.21243027 0.53062373 -0.34405673 -0.02519277
-0.073944 0.011103839 0.12447515 -0.06003937 -0.31376636 -0.24488825 -0.150648 -0.35691375
0.2890614 -0.3604928 0.37728378 -0.15958348 -0.03670329 -0.2777425 -0.20607314 -0.038393587
00000000: 15a0 96be 8396 b2be c587 e13e 6d2f d5be
00000010: 2cc7 8e3d 00be 55be 3dde e4be 5ef6 393e
00000020: 37bf d43d 516d 87be 474b edbe ac4b ca3c
00000030: a46f dfbe 5248 83bd 462f a13e 9ebe 913e
00000040: 25d0 b0be 3ee9 033e 4c9d 0d3e 4e8d 8d3e
00000050: 67ac ba3c a8e6 fbbd adcd ecbe 5276 22bf
00000060: 3464 a2be d443 48be 2a96 d23d 44f6 bf3e
00000070: 86d2 b93e 1acf a4be 0484 8ebd b3d3 713d
00000080: 575e a13e 046d 86bd 7d70 52be f773 99be
00000090: 7c1d d1bc 1d90 4a3e ce94 0f3e 2030 b5bd
000000a0: 1d0b debe 57e7 47be 1f58 adbd 74f5 03be
000000b0: fa58 823e de5f 5ebe 8ae1 d73e b5aa 90be
000000c0: 9619 f5be f228 473e d67c 87bd aa5c b9bd
000000d0: a59a 2b3e 8954 dabc 9da2 eb3e 6bf5 2b3e
000000e0: a2d5 bcbe 26f1 9cbe 63c7 02bd 8a25 ec3d
000000f0: 9842 2d3e 5172 cbbe 64d3 ae3e fef8 aabe
00000100: 9491 e33d 32d1 b33e ac7e 433e ea03 c4be
00000110: be53 363d 4e5c c3be 6a14 953d 5043 a03d
00000120: b15f 5dbe 86c5 2abe 6e5f 2f3c 95ae fcbd
00000130: fba6 9b3d f615 8cbe 21d7 393d 1bf1 e33e
00000140: daa3 93bd 7656 c73e 1c71 8cbd 0018 cbbe
00000150: 6666 77be 5df5 3cbe f2df 973e 1e6c 98be
00000160: 0d6c a73b ad22 cd3e a173 cbbd 6dd7 9abd
00000170: 2a9f a33e 0d27 5d3d 0533 0d3f 98d1 3abe
00000180: 0ab8 1c3e ec88 c9be 8e16 f83e 8eb6 973e
00000190: cfca c93e 309b 113f 9418 30be 6430 fcbd
000001a0: a736 cb3d cd98 9c3e 234b 07bf c14a f7bb
000001b0: 2656 5abd f50b 79bc 3668 96bd 3082 643e
000001c0: 4ea2 f1bd 427d 99be 89b8 f5bd 1eb3 4cbe
000001d0: 793b 87bd 0f0c 1e3f 0658 fdbe 7987 b5be
000001e0: c525 7bbd 2d08 b23e 3ac5 983d b453 963e
000001f0: b62c d5bd 7515 f5be 17df a03e 4fc9 733d
00000200: 3704 433e 958f 9c3e 4d98 893e 4bc9 04bf
00000210: 1e8a 963e 9fe7 993e c8b5 c3be 44ce 293f
00000220: c002 86be 9e1c 86bd 5249 f4be 52dd b4be
00000230: 4c41 bd3d 92db ccbe 3be5 b5be 9d31 b2bd
00000240: 25d0 bebe 1470 e0bd 98c0 5f3e a435 45be
00000250: 9250 8c3e ef31 63be 7611 87be ee05 d63e
00000260: 88b5 573d 9fb4 9d3d 6fe1 b23e b18e 11bf
00000270: 5287 59be f5d6 073f 3428 b0be 1161 cebc
00000280: f46f 97bd e0ec 353c d4ec fe3d d8eb 75bd
00000290: fca5 a0be fcc3 7abe 7843 1abe 66bd b6be
000002a0: dbff 933e 8392 b8be 572b c13e da69 23be
000002b0: 3056 16bd 4434 8ebe d604 53be 9842 1dbd

proj.inputs.score.weight f4 [63, 16]
0.1345869 -0.21670339 -0.17366725 -0.021434635 0.12263948 0.16334188 0.074415326 -0.14295682
-0.13045152 0.001863569 0.13972098 0.2456899 -0.0978923 -0.24391857 0.25248984 -0.09890312
-0.06433715 0.1444003 -0.009392232 0.015910476 -0.23422219 -0.020897686 0.109459996 -0.0013734996
0.0006045997 -0.17631948 -0.22993179 0.046759248 0.22778502 0.06995705 -0.23138581 0.077647656
0.062114626 0.25217077 0.21331939 -0.15237151 0.08291307 0.16575551 -0.10455461 -0.23748553
0.18975365 0.07069546 -0.24485713 -0.20630318 -0.23674807 0.022696555 -0.22496057 0.111284554
0.006831974 0.0033002198 0.053452045 -0.14088033 0.23624602 0.1628358 0.21279964 0.18543106
-0.19904375 0.24505737 0.06226644 0.18998241 0.006017983 0.035259694 0.036622107 -0.11059141
-0.10649668 -0.18854779 -0.08206658 0.22130811 -0.14122161 -0.03503211 -0.1414292 0.017336756
-0.11942519 0.11540386 0.12754056 -0.08957496 0.10974187 0.21875486 0.053513825 0.008815706
-0.058021102 0.28578568 -0.16705728 -0.17112295 -0.21519178 -0.13419339 0.061448015 0.07785049
-0.267579 -0.10162506 0.4582767 -0.21528828 0.008733728 0.21612225 -0.3486328 0.09008221
0.18553385 -0.26775506 0.089720696 -0.038492754 0.008883029 -0.1879209 0.018069863 -0.042785108
-0.01456362 -0.18234117 0.2608917 0.27141204 -0.03166157 -0.112532675 0.0143072605 -0.23449582
0.025430694 0.061461933 0.046633936 0.14555857 0.1458305 -0.27687225 -0.21472642 0.03918145
-0.07071928 0.10144697 0.2625125 -0.2912614 0.08937425 -0.0130998595 -0.27381283 0.04492943
0.028472781 0.10848808 -0.19817042 0.18771642 0.14344883 -0.14378065 -0.061115682 0.2257488
0.085737854 0.24925402 0.18800062 0.12586525 -0.21587607 0.14069381 0.09863648 -0.13764529
0.26892808 -0.043814123 0.13455409 0.05765274 -0.026141316 0.13164064 -0.15188394 0.06525874
-0.03389764 0.05154136 -0.09015007 0.18300128 0.18559065 0.17445388 0.1720691 0.042693764
-0.27558428 -0.23412636 0.16025442 -0.044850588 -0.09523697 -0.25539544 0.014769822 -0.2604419
-0.11363952 0.12027499 0.11306399 0.23128262 0.21305934 0.11389884 -0.041477337 -0.11862697
0.006298661 0.04974839 -0.22391884 -0.107981 0.01224646 0.15918204 0.097335845 0.19694027
0.082021445 0.2510393 0.2526451 -0.04762882 0.14689437 -0.09348303 -0.19937003 -0.09905279
-0.21446767 0.16127178 0.007756859 -0.12038368 0.04229337 -0.10624759 -0.031180114 -0.15380657
0.1544326 0.22900829 0.006619364 0.06488553 -0.101724416 0.07494572 0.24493095 -0.18085563
0.11709553 0.01733026 0.24488053 0.24869785 -0.23975936 0.2739208 0.15321776 -0.14262308
-0.033038378 0.20903197 0.24597147 -0.20980558 -0.2279546 0.17214313 0.07218048 -0.010782987
0.017478734 0.0020560324 0.011169434 -0.24693651 0.10970107 -0.24147135 0.21564588 -0.0933505
-0.011448264 0.22262597 -0.21225622 0.035164088 -0.17399397 0.17685279 -0.19563137 0.06767163
-0.04723294 -0.043252528 0.016462237 -0.0023206472 -0.22505012 0.11228976 -0.17865269 0.20769933
0.025890142 -0.06959422 -0.17084804 0.22268793 0.07750824 -0.20210426 0.14737946 -0.1572376
00000000: 26d1 093e 7ee7 5dbe d4d5 31be b097 afbc
00000010: 682a fb3d 1843 273e 1067 983d 4663 12be
00000020: 1595 05be 0043 f43a 0413 0f3e 2296 7b3e
00000030: c27b c8bd cac5 79be 5946 813e b88d cabd
00000040: 32c3 83bd acdd 133e e0e1 19bc b056 823c
00000050: f1d7 6fbe a031 abbc 902c e03d 0007 b4ba
00000060: 007e 1e3a 188d 34be 3d73 6bbe a086 3f3d
00000070: 7a40 693e a445 8f3d 67f0 6cbe bc05 9f3d
00000080: e86b 7e3d 871c 813e 6670 5a3e 4707 1cbe
00000090: 54ce a93d d0bb 293e ba20 d6bd 682f 73be
000000a0: c84e 423e c8c8 903d d4bb 7abe 2441 53be
000000b0: 166e 72be 20ee b93c 105c 66be 28e9 e33d
000000c0: c0de df3b 8048 583b 88f0 5a3d ef42 10be
000000d0: 7aea 713e 6ebe 263e 26e8 593e a4e1 3d3e
000000e0: 20d2 4bbe 52f0 7a3e 180b 7f3d c08a 423e
000000f0: 8032 c53b 786c 103d 1001 163d c07d e2bd
00000100: ee1a dabd ac12 41be 8612 a8bd 989e 623e
00000110: 669c 10be d47d 0fbd d1d2 10be d005 8e3c
00000120: 3295 f4bd dc58 ec3d fe99 023e 1473 b7bd
00000130: 58c0 e03d 4601 603e 5031 5b3d c06f 103c
00000140: 89a7 6dbd 8052 923e 1011 2bbe db3a 2fbe
00000150: 3c5b 5cbe fe69 09be eab0 7b3d 1470 9f3d
00000160: 1d00 89be cd20 d0bd 3ea3 ea3e 8874 5cbe
00000170: e917 0f3c 274f 5d3e 0080 b2be 067d b83d
00000180: 96fc 3d3e 3117 89be 7cbf b73d 94aa 1dbd
00000190: 208a 113c 566e 40be 4007 943c 703f 2fbd
000001a0: 409c 6ebc a5b7 3abe 9993 853e 85f6 8a3e
000001b0: 90af 01bd 8877 e6bd 0069 6a3c ac1f 70be
000001c0: 0854 d03c 82bf 7b3d 3a03 3f3d 4e0d 153e
000001d0: 9754 153e 33c2 8dbe 3ee1 5bbe ba7c 203d
000001e0: 45d5 90bd 6ec3 cf3d 0a68 863e 3720 95be
000001f0: d909 b73d cba0 56bc 3231 8cbe ec07 383d
00000200: c03f e93c 002f de3d 30ed 4abe bc38 403e
00000210: 40e4 123e 3c3b 13be 7054 7abd b22a 673e
00000220: 5497 af3d 723c 7f3e 3c83 403e d2e2 003e
00000230: 9e0e 5dbe 0a12 103e ec01 ca3d e3f2 0cbe
00000240: f1b0 893e 7076 33bd 8cc8 093e 4825 6c3d
00000250: 5026 d6bc cecc 063e 7787 1bbe 60a6 853d
00000260: 40d8 0abd 081d 533d 9aa0 b8bd b064 3b3e
00000270: 7a0b 3e3e 0aa4 323e e232 303e a8df 2e3d
00000280: 6219 8dbe d2be 6fbe bc19 243e 40b5 37bd
00000290: 9a0b c3bd 31c3 82be 20fd 713c a458 85be
000002a0: d6bb e8bd bc52 f63d 188e e73d 5ad5 6c3e
000002b0: 3a2c 5a3e cc43 e93d 24e4 29bd b2f2 f2bd
000002c0: 0065 ce3b f8c4 4b3d fb4a 65be 2425 ddbd
000002d0: 60a5 483c 9e00 233e 0458 c73d b6aa 493e
000002e0: dcfa a73d 3988 803e b35a 813e 7016 43bd
000002f0: 7a6b 163e 0874 bfbd a827 4cbe 30dc cabd
00000300: 6a9d 5bbe 6e24 253e 402d fe3b b88b f6bd
00000310: d03b 2d3d 5698 d9bd 706d ffbc 787f 1dbe
00000320: 9423 1e3e 2681 6a3e 40e7 d83b b4e2 843d
00000330: e454 d0bd 247d 993d 2ecf 7a3e 3832 39be
00000340: c8cf ef3d 30f8 8d3c f6c1 7a3e a6aa 7e3e
00000350: 7a83 75be 593f 8c3e 1ee5 1c3e c90b 12be
00000360: 4053 07bd 7a0c 563e f2df 7b3e 46d7 56be
00000370: ee6c 69be 4a46 303e 5cd3 933d 20ab 30bc
00000380: 902f 8f3c 80be 063b 0000 373c eddc 7cbe
00000390: f4aa e03d 4444 77be 46d2 5c3e 8c2e bfbd
000003a0: 8091 3bbc 10f8 633e b259 59be 3808 103d
000003b0: 7a2b 32be e618 353e 9753 48be 6c97 8a3d
000003c0: 5477 41bd 9029 31bd d0db 863c 0016 18bb
000003d0: 8a73 66be 2cf8 e53d bbf0 36be 22af 543e
000003e0: 9017 d43c 6a87 8ebd caf2 2ebe 4e08 643e
000003f0: a4bc 9e3d 6bf4 4ebe a4ea 163e e502 21be

proj.inputs.media_type.weight f4 [235, 16]
0.13916412 0.055296063 -0.14914721 -0.12995838 -0.067066684 -0.109142736 0.084317565 0.006284237
-0.05632379 -0.08361945 0.06478332 -0.06698612 0.075685844 -0.0013594776 -0.15444511 -0.106673166
-0.0782842 -0.05917742 -0.07468078 -0.037613392 0.11863363 0.014591247 -0.08993308 -0.07110066
-0.014986128 0.12990138 0.00077831745 -0.052807726 -0.013788432 0.03974545 0.019973785 -0.04426033
0.06329121 0.14046922 0.15414917 0.04883632 0.037606284 0.11208624 -0.13037409 -0.0796221
-0.14828053 0.04959865 -0.1233081 -0.046290427 -0.12326798 0.14376006 -0.04860498 0.094441414
0.0161317 0.09748191 0.071044445 0.024779007 -0.069646485 -0.020626992 0.03625661 0.026166826
0.065516785 0.06089066 -0.13973573 0.14150265 -0.0054907203 0.06913352 -0.15021473 0.11862546
0.09657121 -0.075929746 -0.13738295 -0.06826584 -0.017867357 -0.024717882 -0.11175662 -0.14283665
-0.12518534 0.099620104 -0.12774765 -0.13957843 0.090359166 0.14238593 0.08811766 -0.05295711
0.12725574 -0.14140195 0.092418656 0.03616777 -0.042860277 -0.11706218 0.038042933 0.12248975
0.12797281 -0.14761637 -0.12578672 0.013510808 0.11770883 0.1201956 -0.013378203 0.041652784
0.063917145 -0.03621467 0.076735735 0.15903929 -0.12317639 -0.100795805 -0.1130259 0.119163096
-0.05839099 -0.19282146 0.05353143 -0.06332679 -0.124720834 0.16252956 0.108507015 0.100733116
0.11727664 -0.021922693 -0.03652504 -0.119607106 0.14282471 0.040371314 0.08175588 -0.054096825
0.013063908 0.01721473 -0.12154709 -0.12436914 -0.15309094 0.11588925 0.15206745 0.14443985
-0.107310936 -0.05351737 -0.0512586 0.12689665 -0.026854798 -0.08358421 0.15093797 -0.06494894
-0.019989327 -0.07231609 -0.075660266 -0.07729786 -0.07851276 -0.032072186 -0.14054827 0.15265208
-0.101050384 -0.11969817 0.069264725 -0.047364056 0.093985245 0.14976627 -0.14740574 0.029849723
-0.10032164 -0.03908594 -0.11696428 -0.031753443 0.12179741 -0.02945982 0.095127985 -0.08571518
-0.13245687 -0.10241334 0.14619935 0.0066418797 -0.1444984 -0.102644995 0.13324153 -0.15287279
0.0023978353 0.09953895 -0.032951213 -0.057050616 -0.065332875 -0.09620382 0.10990909 -0.0876138
-0.023854598 0.090765014 -0.05896572 -0.1230067 0.13751188 -0.0056205094 -0.05774924 0.039503306
-0.052589335 0.008677721 0.077214465 -0.08043295 0.021151587 -0.0864032 0.08789423 0.08219297
0.026737764 -0.0030990243 -0.015533492 0.08752048 -0.10448408 0.04754506 0.012507483 0.15419504
-0.033620447 -0.11554502 -0.015671864 0.1540434 0.10556087 0.1507087 0.007119745 0.066625714
0.12370375 0.13789055 0.10153642 -0.09065661 -0.017914861 0.13197735 0.044939145 0.12194002
-0.12172316 -0.10344958 0.09876931 0.105404794 0.032800853 -0.15390363 -0.07537689 -0.05459004
-0.06179755 0.09397869 0.024411246 0.07378848 -0.13664785 0.0743068 0.015206933 0.12172273
0.10804492 0.019694775 0.10221723 0.009538576 -0.04025892 0.03070958 -0.018320248 0.005633712
-0.11948031 -0.071715124 0.00819169 -0.019906253 -0.07905531 -0.028105885 -0.07446341 0.002252549
0.10625324 0.13041645 -0.072554454 0.06903322 0.0984869 -0.055729665 0.11408579 0.03065297
00000000: 0a81 0e3e 207e 623d 0cba 18be cf13 05be
00000010: 425a 89bd 3a86 dfbd b0ae ac3d 00ec cd3b
00000020: c6b3 66bd ad40 abbd 1ead 843d 0530 89bd
00000030: 2e01 9b3d 8030 b2ba dc26 1ebe 7677 dabd
00000040: 7753 a0bd 0664 72bd 3df2 98bd 8010 1abd
00000050: 30f6 f23d 2010 6f3c d62e b8bd 399d 91bd
00000060: 6088 75bc de04 053e 0008 4c3a ea4c 58bd
00000070: e0e8 61bc 20cc 223d 10a0 a33c 524a 35bd
00000080: d29e 813d 2ad7 0f3e 48d9 1d3e 9808 483d
00000090: 0c09 1a3d 788d e53d c980 05be e910 a3bd
000000a0: dad6 17be f427 4b3d f588 fcbd 089b 3dbd
000000b0: ec73 fcbd d635 133e 0416 47bd 806a c13d
000000c0: a026 843c 98a4 c73d c07f 913d 58fd ca3c
000000d0: d1a2 8ebd f0f9 a8bc d081 143d d05b d63c
000000e0: aa2d 863d 7c68 793d e216 0fbe 12e6 103e
000000f0: 80eb b3bb e095 8d3d e4d1 19be e8f1 f23d
00000100: 20c7 c53d 0e81 9bbd 1eae 0cbe f6ce 8bbd
00000110: 905e 92bc 287d cabc a8e0 e4bd c543 12be
00000120: 9630 00be a005 cc3d 48d0 02be a6ed 0ebe
00000130: 3a0e b93d 9ecd 113e 0877 b43d 8ee9 58bd
00000140: 544f 023e accb 10be fe45 bd3d a824 143d
00000150: 428e 2fbd 4cbe efbd e8d2 1b3d e8db fa3d
00000160: 4e0b 033e bf28 17be 3cce 00be 705c 5d3c
00000170: 5411 f13d 1c29 f63d 4030 5bbc 1c9c 2a3d
00000180: fee6 823d d555 14bd a027 9d3d 32db 223e
00000190: e743 fcbd 086e cebd 207a e7bd c80b f43d
000001a0: 642b 6fbd fd72 45be c643 5b3d 7ab1 81bd
000001b0: a36d ffbd 266e 263e ed38 de3d 2a4d ce3d
000001c0: bc2e f03d 3897 b3bc 489b 15bd 92f4 f4bd
000001d0: a440 123e 645c 253d a06f a73d a294 5dbd
000001e0: 000a 563c e805 8d3c aeed f8bd 3fb5 febd
000001f0: dfc3 1cbe 5857 ed3d 92b7 1b3e 0ae8 133e
00000200: d6c5 dbbd 0835 5bbd 8af4 51bd 32f1 013e
00000210: 98fe dbbc 332e abbd 7c8f 1a3e f303 85bd
00000220: a8c0 a3bc 751a 94bd c5f3 9abd 574e 9ebd
00000230: 4ccb a0bd 205e 03bd e3eb 0fbe d450 1c3e
00000240: 81f3 cebd 5024 f5bd aada 8d3d d000 42bd
00000250: 567b c03d 545c 193e 88f1 16be 6887 f43c
00000260: 6f75 cdbd 9418 20bd f88a efbd e60f 02bd
00000270: ec70 f93d b855 f1bc 76d2 c23d 718b afbd
00000280: c6a2 07be 16be d1bd 48b5 153e 20a4 d93b
00000290: 63f7 13be 8a37 d2bd 7870 083e af8a 1cbe
000002a0: 0025 1d3b 14db cb3d daf7 06bd e8ad 69bd
000002b0: 3ecd 85bd 8206 c5bd 0418 e13d dd6e b3bd
000002c0: b86a c3bc 02e3 b93d 0a86 71bd f0ea fbbd
000002d0: eacf 0c3e 402c b8bb 788a 6cbd 38ce 213d
000002e0: ea67 57bd 002d 0e3c 9e22 9e3d 08ba a4bd
000002f0: 1846 ad3c 29f4 b0bd e401 b43d ca54 a83d
00000300: 2809 db3c 0019 4bbb 3080 7ebc f03d b33d
00000310: c0fb d5bd 9cbe 423d 30ec 4c3c 4ee5 1d3e
00000320: 98b5 09bd dea2 ecbd 4862 80bc 8ebd 1d3e
00000330: 4c30 d83d 6253 1a3e c04c e93b 1073 883d
00000340: 6458 fd3d 2e33 0d3e 54f2 cf3d 2caa b9bd
00000350: 30c2 92bc 1225 073e 1c12 383d b0bb f93d
00000360: fe49 f9bd 60dd d3bd 9047 ca3d 78de d73d
00000370: 305a 063d ea98 1dbe 335f 9abd ce99 5fbd
00000380: 6e1f 7dbd e677 c03d 18fa c73c 6a1e 973d
00000390: 6aed 0bbe 2a2e 983d 8026 793c c449 f93d
000003a0: a846 dd3d f056 a13c 4457 d13d b047 1c3c
000003b0: 8ae6 24bd a892 fb3c 5814 96bc 009b b83b
000003c0: 18b2 f4bd 61df 92bd 7036 063c 7012 a3bc
000003d0: c0e7 a1bd 503e e6bc 4680 98bd 809f 133b
000003e0: 4c9b d93d e48b 053e 6e97 94bd 4a61 8d3d
000003f0: 80b3 c93d ca44 64bd d0a5 e93d f01b fb3c

proj.inputs.item_category.weight f4 [6, 16]
0.1741414 -0.1858635 0.099572904 0.40783715 0.42410836 0.17745495 0.025931476 0.06650558
-0.05597174 0.24564724 0.1013745 -0.50257736 -0.20707995 -0.25938496 0.17128667 0.45913354
0.063608095 0.3013907 -0.036268447 -0.38262948 0.35956404 -0.1531092 -0.71162564 0.13597915
0.19930875 -0.53519213 0.21633352 0.11745617 0.14764428 -0.22942942 0.5866131 0.18278933
0.4716208 -0.21323636 -0.29895243 -0.02585679 -0.35295948 0.07092558 -0.6689363 0.07480132
-0.124318466 0.17639002 0.5800928 -0.3412284 -0.2867525 -0.10447276 -0.26851884 0.0038467136
0.3246108 0.13778955 -0.48119572 0.008180804 -0.71181494 0.05320442 -0.12518512 0.0034627644
-0.055124495 -0.46595323 0.0432927 0.7345935 0.5808571 0.40867636 0.62614805 0.18909308
0.01823361 0.22380693 -0.46795815 -0.16165057 0.24361904 -0.07289535 -0.23094013 0.06432709
0.10257452 0.15989026 -0.4531195 0.1768671 0.150927 -0.78265584 -0.2453425 0.1838307
0.400236 0.097495854 -0.1288065 0.28965592 0.027220905 0.40951282 0.06692296 -0.007952988
-0.3931633 -0.43001896 -0.30389565 0.2664587 0.3154049 -0.2441063 -0.34202528 0.24805224
00000000: 2052 323e 0053 3ebe e1ec cb3d 08d0 d03e
00000010: bb24 d93e c0b6 353e 3f6e d43c 1434 883d
00000020: a042 65bd f38a 7b3e 6f9d cf3d e9a8 00bf
00000030: c40c 54be 1bce 84be c665 2f3e 8d13 eb3e
00000040: f644 823d e24f 9a3e 398e 14bd 03e8 c3be
00000050: c718 b83e a8c8 1cbe 192d 36bf 1e3e 0b3e
00000060: 9817 4c3e 5a02 09bf 8986 5d3e dc8c f03d
00000070: 1030 173e 8cef 6abe 472c 163f 202d 3b3e
00000080: 4878 f13e a25a 5abe 4b10 99be 9ed1 d3bc
00000090: 1bb7 b4be 6e41 913d 693f 2bbf 6f31 993d
000000a0: ae9a febd 969f 343e f680 143f 7db5 aebe
000000b0: 39d1 92be d0f5 d5bd 4d7b 89be 2519 7c3b
000000c0: 6333 a63e b418 0d3e 495f f6be c708 063c
000000d0: 8139 36bf e1ec 593d 8730 00be 8cef 623b
000000e0: 39ca 61bd 6c91 eebe b053 313d 520e 3c3f
000000f0: 0db3 143f 073e d13e 3d4b 203f 9ea1 413e
00000100: a75e 953c a52d 653e 3698 efbe ba87 25be
00000110: 4577 793e 284a 95bd 927b 6cbe ecbd 833d
00000120: 9712 d23d 46ba 233e 47ff e7be a61c 353e
00000130: 9c8c 1a3e 225c 48bf 103b 7bbe 1d3e 3c3e
00000140: bceb cc3e e8ab c73d dae5 03be c84d 943e
00000150: 60fe de3c aaab d13e e80e 893d 404d 02bc
00000160: b34c c9be 722b dcbe 3698 9bbe 466d 883e
00000170: c07c a13e 00f7 79be f01d afbe 6801 7e3e

proj.inputs.title.weight f4 [11, 16]
0.15071532 -0.31912586 -0.21582003 -0.41152513 -0.21726166 -0.27856883 0.31132087 0.3828132
0.43957433 0.20189348 0.020478137 0.1860934 -0.13478684 0.27719113 0.33671463 0.03334284
-0.10932651 -0.25873908 -0.3448233 0.36009198 0.5549616 0.37533444 0.123697095 0.15803584
-0.48109052 0.16415644 -0.7480189 0.45661914 -0.38608193 0.51284236 -0.004595276 0.525658
-0.24072786 0.004868851 0.28887758 -0.35442892 0.16634749 -0.006368704 0.11217442 -0.11779942
-0.36413768 -0.06480582 -0.0926154 0.3340905 0.028487923 -0.14227143 0.4286694 -0.2328183
-0.35666516 -0.02625592 0.030332278 0.26732388 -0.23500665 0.31576717 0.28895655 0.12386233
0.033743415 0.4818235 -0.2328378 0.16963176 -0.0169462 -0.14727841 -0.34174055 -0.28092575
-0.28179994 0.32198322 0.10395019 -0.12866472 0.13864191 0.30404687 -0.19770412 -0.17619374
0.16745473 0.23659489 -0.17693701 -0.14112681 -0.040810786 -0.24786595 -0.21966334 0.37743577
-0.30794317 0.27497888 -0.31820902 0.43115515 0.28204447 -0.30095133 0.08820097 0.27399504
-0.17548269 -0.38694236 -0.027000852 -0.119172774 -0.063491635 -0.18601334 0.44143787 0.3954175
-0.13468915 -0.24442703 0.1865825 0.24655262 -0.35090867 0.43160367 -0.30954555 0.4614911
-0.22133538 -0.2122915 -0.4970834 0.23770554 -0.20409784 0.28391376 -0.20605667 -0.25189158
0.1825096 -0.04282645 -0.11746154 0.29507095 -0.43664762 -0.07130705 0.12073589 0.46735898
-0.14911461 -0.22109683 -0.26511836 0.33243537 0.12219075 -0.20026311 -0.2819352 0.042813566
0.5157264 -0.13443287 -0.2533887 -0.1332706 0.05349055 0.27870235 -0.1725795 0.5128269
-0.35979134 0.087109566 -0.3842739 -0.09809897 -0.0067416877 0.33953637 -0.2965044 -0.4485523
-0.14779526 -0.4356229 0.46906042 -0.25234988 -0.04470304 -0.51922756 -0.018399714 0.40997833
0.2382024 -0.5589752 0.27478573 0.16423187 0.0060542654 -0.09500244 -0.30706203 -0.19393404
0.3346751 -0.22952662 0.23654392 0.3655484 -0.42963424 0.03164503 0.21742561 -0.36111385
0.3457286 -0.009169459 -0.43502662 0.114446074 -0.40034026 -0.05653608 -0.16786674 0.37425473
00000000: 1e55 1a3e 7764 a3be edff 5cbe 6cb3 d2be
00000010: d779 5ebe 93a0 8ebe 7365 9f3e 1700 c43e
00000020: e30f e13e 2abd 4e3e c4c1 a73c 458f 3e3e
00000030: 9005 0abe ffeb 8d3e dc65 ac3e 8092 083d
00000040: 94e6 dfbd 7379 84be ae8c b0be fa5d b83e
00000050: f711 0e3f d62b c03e e754 fd3d 26d4 213e
00000060: 7f51 f6be a018 283e 2b7e 3fbf fcc9 e93e
00000070: 88ac c5be a349 033f f893 96bb 8691 063f
00000080: 5d81 76be e28a 9f3b c3e7 933e b577 b5be
00000090: ff56 2a3e 90b0 d0bb b4bb e53d d340 f1bd
000000a0: 4170 babe eab8 84bd 25ad bdbd e90d ab3e
000000b0: 815f e93c 9aaf 11be 8e7a db3e ec67 6ebe
000000c0: d19c b6be a816 d7bc 667b f83c adde 883e
000000d0: 95a5 70be 3cac a13e 1df2 933e 89ab fd3d
000000e0: 8936 0a3d 92b1 f63e 086d 6ebe f3b3 2d3e
000000f0: c2d2 8abc 27d0 16be 9ef8 aebe 80d5 8fbe
00000100: 1548 90be fcda a43e d6e3 d43d afc0 03be
00000110: 25f8 0d3e 08ac 9b3e f372 4abe 226c 34be
00000120: 4179 2b3e ee45 723e fa2e 35be 8c83 10be
00000130: 3629 27bd 92d0 7dbe 6def 60be 433f c13e
00000140: baaa 9dbe 08ca 8c3e 4bec a2be 5ec0 dc3e
00000150: 2268 903e 4b16 9abe b6a2 b43d 1449 8c3e
00000160: bcb1 33be 4f1d c6be e430 ddbc db10 f4bd
00000170: e707 82bd 487a 3ebe 2504 e23e 2a74 ca3e
00000180: f4eb 09be 144b 7abe 7c0f 3f3e 4a78 7c3e
00000190: 4daa b3be 28fb dc3e c17c 9ebe 9048 ec3e
000001a0: bea5 62be f162 59be b781 febe 1569 733e
000001b0: 06ff 50be 255d 913e 8500 53be eff7 80be
000001c0: cce3 3a3e ca6a 2fbd ad8f f0bd 8a13 973e
000001d0: 4790 dfbe 6e09 92bd 6144 f73d ad49 ef3e
000001e0: 80b1 18be 3567 62be 98bd 87be f834 aa3e
000001f0: 253f fa3d c611 4dbe cf59 90be 475d 2f3d
00000200: a506 043f c5a8 09be 2abc 81be 1778 08be
00000210: e818 5b3d 13b2 8e3e aeb8 30be a048 033f
00000220: 9236 b8be 8066 b23d 8cbf c4be 1de8 c8bd
00000230: 60e9 dcbb b6d7 ad3e 6dcf 97be a6a8 e5be
00000240: a457 17be f709 dfbe b028 f03e 0134 81be
00000250: 891a 37bd 19ec 04bf ffba 96bc aee8 d13e
00000260: 54eb 733e 0019 0fbf b7b0 8c3e 662c 283e
00000270: dc62 c63b a490 c2bd 3c37 9dbe a596 46be
00000280: 895a ab3e 0709 6bbe 9238 723e 2929 bb3e
00000290: 05f9 dbbe 389e 013d d2a4 5e3e eae3 b8be
000002a0: 5703 b13e 803b 16bc cfbb debe b462 ea3d
000002b0: 66f9 ccbe 6092 67bd 42e5 2bbe 519e bf3e

proj.inputs.item-texts.emb.weight f4 [181, 16]
-0.12459485 -0.08119967 -0.09931402 -0.04932952 0.13903698 -0.10027003 -0.021333888 0.018245831
-0.023290053 0.07150531 -0.026992708 0.04554501 -0.17080382 -0.07929909 0.069823414 0.14126742
-0.14920793 -0.006630987 0.030772328 0.013983816 0.06390406 -0.15391779 0.09062418 0.009596825
0.028131202 0.09952679 0.08917615 -0.09154443 -0.16122858 0.012138218 -0.14609343 -0.03576739
0.16204047 0.1007043 -0.014502888 0.10927028 0.27771124 -0.069346845 -0.027634796 -0.04346183
-0.11409658 -0.0371353 -0.1990379 0.09956601 -0.1301005 0.17301175 0.20092021 -0.11581215
0.029945401 -0.06518924 0.050521933 0.0051450226 -0.05784586 -0.3318124 -0.17365524 0.10370856
0.19549847 0.026926776 0.23651707 -0.22083196 0.036257677 -0.073712945 0.07228727 0.09110188
0.1500027 -0.07911072 -0.09995337 -0.22074433 -0.3394753 -0.0517452 -0.08276324 0.2669617
0.11717357 0.05764684 0.093624786 0.34298438 0.04381638 -0.23091617 0.1511659 0.2910403
-0.048835292 0.21150829 0.097261585 -0.041937865 -0.10822522 -0.036520675 -0.18729009 -0.32261083
0.05003766 0.04018745 0.2608868 0.09595529 0.1770601 -0.10726985 -0.13967517 0.18701893
0.33070546 -0.04084779 0.29051328 -0.03574754 -0.27872086 -0.059464626 -0.045331586 0.32459643
0.29895598 -0.19681056 0.16403307 0.08245627 0.07761596 -0.111457005 -0.008854446 0.17272246
0.24856572 -0.17036001 0.120174006 -0.06507787 -0.03082101 0.1380882 -0.18518364 0.09735665
0.21420483 0.22877935 -0.023312137 0.14129734 -0.07428415 -0.036377713 0.052735005 -0.0064975736
0.2918555 0.16899256 0.10590016 0.01870725 -0.24414092 -0.03392075 -0.11978796 0.3236772
0.1570427 -0.06243492 0.14590763 0.07368126 -0.037262995 -0.12290825 -0.15236273 0.10369788
-0.005479696 0.108615205 0.017513078 -0.013268802 0.10594705 0.32217067 -0.21404938 -0.16982819
-0.42467058 0.05628135 -0.22933531 0.21406135 0.13996975 0.22073531 0.29734528 0.29656026
-0.23160818 -0.10636342 -0.15331517 0.017564122 -0.21421413 -0.24914902 -0.28390947 -0.12823993
-0.07876184 0.21272218 0.09801886 0.20030259 -0.02015307 -0.0846846 0.03263806 0.07523512
-0.10507385 0.036171123 -0.11804078 0.05715654 -0.27678588 0.04338424 -0.22609068 -0.1533694
-0.13091245 0.029529728 0.22900428 -0.20059197 0.10922936 -0.089722574 -0.034758244 0.2061565
0.23130958 -0.051982284 -0.083261594 0.17069514 -0.05821296 -0.30495682 -0.17242719 0.04727883
0.043765355 -0.18040793 -0.005525268 0.104213074 0.010743557 0.06813735 0.3208506 -0.27893978
-0.076687254 0.023408731 -0.04075094 0.16365394 0.28055325 -0.23366113 -0.08882391 0.1854911
0.05430219 -0.11497296 -0.028942648 -0.24244995 -0.19731842 0.24216901 -0.26601124 -0.25962424
0.11322166 -0.045829557 0.09471074 0.19843554 0.23915847 -0.13571675 0.060448218 -0.16565567
0.13030168 0.023466453 0.024388239 0.05926333 0.2003918 0.22395718 -0.030527577 -0.36481658
-0.08887547 0.05548219 -0.23823974 -0.30109963 0.01223956 -0.2587509 -0.13025951 0.32189283
0.05371385 -0.26392695 0.09509824 0.012836233 -0.10995608 0.014028793 0.026257526 -0.20897305
00000000: 962b ffbd 034c a6bd 2665 cbbd c00d 4abd
00000010: b65f 0e3e 605a cdbd 68c4 aebc 4878 953c
00000020: c8ca bebc 6071 923d d01f ddbc 688d 3a3d
00000030: 32e7 2ebe 9067 a2bd 94ff 8e3d 68a8 103e
00000040: f7c9 18be c048 d9bb 4016 fc3c 601c 653c
00000050: 22e0 823d a09c 1dbe 2c99 b93d 003c 1d3c
00000060: 6873 e63c b4d4 cb3d fca1 b63d a57b bbbd
00000070: 1b19 25be 60df 463c 8499 15be d480 12bd
00000080: f0ed 253e 0e3e ce3d 859d 6dbc 19c9 df3d
00000090: 2b30 8e3e b805 8ebd 5e62 e2bc 0805 32bd
000000a0: 78ab e9bd 2f1b 18bd 97d0 4bbe 44e9 cb3d
000000b0: 1139 05be fe29 313e 07be 4d3e ec2e edbd
000000c0: 0f50 f53c f081 85bd 16f0 4e3d 9497 a83b
000000d0: c8ef 6cbd 51e3 a9be aed2 31be 2765 d43d
000000e0: c030 483e 8b95 dc3c 8831 723e c621 62be
000000f0: ee82 143d d0f6 96bd 590b 943d 9f93 ba3d
00000100: 4f9a 193e cd04 a2bd 5ab4 ccbd cd0a 62be
00000110: b5cf adbe c6f2 53bd c67f a9bd 34af 883e
00000120: b2f8 ef3d 181f 6c3d 5abe bf3d a69b af3e
00000130: ce78 333d 4a75 6cbe 3ccb 1a3e 3c03 953e
00000140: 8407 48bd a195 583e 1531 c73d 0ac7 2bbd
00000150: 2fa5 ddbd b496 15bd f9c8 3fbe 3f2d a5be
00000160: 4af4 4c3d 989b 243d f492 853e 3584 c43d
00000170: 3e4f 353e 4cb0 dbbd 0207 0fbe e481 3f3e
00000180: 3a52 a93e 0350 27bd 28be 943e 036c 12bd
00000190: 80b4 8ebe 2e91 73bd 9dad 39bd 8131 a63e
000001a0: c210 993e b588 49be 49f8 273e d5de a83d
000001b0: 1ef5 9e3d 9243 e4bd 3d12 11bc 28de 303e
000001c0: 0388 7e3e db72 2ebe ca1d f63d 8c47 85bd
000001d0: 587c fcbc fe66 0d3e c8a0 3dbe ec62 c73d
000001e0: 8358 5b3e 2245 6a3e 18f9 bebc 40b0 103e
000001f0: 4a22 98bd cc00 15bd a900 583d 99e9 d4bb
00000200: 166e 953e 630c 2d3e 2fe2 d83d f23f 993c
00000210: 1400 7abe 7cf0 0abd 6453 f5bd 05b9 a53e
00000220: cdcf 203e c2bb 7fbd cf68 153e 33e6 963d
00000230: 15a1 18bd 52b7 fbbd fa04 1cbe 8e5f d43d
00000240: 068f b3bb a671 de3d 9677 8f3c 6465 59bc
00000250: c4fa d83d 8ef3 a43e c32f 5bbe 71e7 2dbe
00000260: 6c6e d9be 4687 663d e0d6 6abe e632 5b3e
00000270: 3b54 0f3e 7008 623e a43d 983e bfd6 973e
00000280: b22a 6dbe 11d5 d9bd a7fe 1cbe a2e2 8f3c
00000290: f35a 5bbe ec20 7fbe 955c 91be 5451 03be
000002a0: e34d a1bd d8d3 593e 1dbe c83d 1f1c 4d3e
000002b0: 0d18 a5bc 1f6f adbd 7daf 053d df14 9a3d
000002c0: f530 d7bd 2c28 143d 5dbf f1bd fa1c 6a3d
000002d0: e1b6 8dbe acb3 313d 5184 67be de0c 1dbe
000002e0: ea0d 06be 54e8 f13c 1980 6a3e fb67 4dbe
000002f0: a5b3 df3d 78c0 b7bd a95e 0ebd b11a 533e
00000300: 6bdc 6c3e 60eb 54bd 0e85 aabd b5ca 2e3e
00000310: b670 6ebd 4d23 9cbe c190 30be 72a7 413d
00000320: 4d43 333d dbbc 38be 4f0d b5bb aa6d d53d
00000330: be05 303c 988b 8b3d 8846 a43e 32d1 8ebe
00000340: 350e 9dbd abc3 bf3c 75ea 26bd e694 273e
00000350: ada4 8f3e dd44 6fbe 4fe9 b5bd 61f1 3d3e
00000360: f96b 5e3d f176 ebbd 2219 edbc cd44 78be
00000370: d70d 4abe 27fb 773e a032 88be 78ed 84be
00000380: c2e0 e73d c6b7 3bbd b4f7 c13d b032 4b3e
00000390: f5e5 743e 55f9 0abe 8d98 773d a4a1 29be
000003a0: ce6d 053e b83c c03c d8c9 c73c 1bbe 723d
000003b0: 8233 4d3e 0855 653e f814 fabc 3dc9 babe
000003c0: 5804 b6bd 4b41 633d 1ef5 73be bb29 9abe
000003d0: 6f88 483c ff7a 84be c062 05be 23cf a43e
000003e0: 0e03 5c3d 6f21 87be dec2 c23d 104f 523c
000003f0: a730 e1bd 06d9 653c 061a d73c 08fd 55be

sage.convs.0.Q.weight f4 [16, 16]
0.16686857 0.36404714 -0.16793162 0.27386996 0.866736 0.43199635 -0.6863419 0.2646944
-0.53787047 -0.37563556 0.10616637 -0.0065673557 -0.09902083 0.23630217 0.043324012 -0.3750142
-0.20322528 -0.0048012896 0.2360958 -0.45489115 -0.45018926 -0.59427327 -0.028265463 0.31443137
-0.5149511 -0.24526723 0.37364173 0.45138434 0.13667682 0.43900406 0.6047958 0.12179717
0.12951922 -0.41426262 0.57532054 -0.64655113 0.013034499 0.25796947 0.11564403 0.044182573
-0.069283836 -0.024852123 -0.45188585 0.49622187 0.352192 -0.058696643 -0.059066843 0.33274394
-0.68917346 0.051219486 -0.24779734 0.27939907 0.6982712 0.58805215 -0.45274132 -0.19931637
0.59806347 -0.45725855 0.2615107 -0.09795531 -0.2692383 -0.63784724 -0.08061921 0.5578035
0.022865977 0.22024313 -0.09952129 0.2298592 -0.19984609 0.36826202 -0.11525849 -0.46332568
-0.6240936 -0.32743686 0.13685048 -0.7459706 -0.14759575 0.18674356 -0.56057084 0.015922647
-0.118308485 0.08506977 -0.34567422 -0.13622427 0.48845932 0.28496715 0.48260465 -0.33447504
-0.39659318 -0.22844213 0.49699214 0.27306193 0.525308 -0.41441303 -0.7081088 0.3056659
0.27103913 -0.014403574 0.6512481 -0.29211769 -0.12479367 -0.041042224 0.53175294 -0.56820846
0.177094 0.5776656 -0.29868862 -0.32943067 0.035369974 -0.024274703 0.15671876 -0.6348238
0.6499343 -0.24378313 0.540902 -0.4230889 -0.4174431 0.3360066 -0.4938111 0.4266123
-0.2771518 0.048924703 -0.3253277 0.35815656 0.38608563 -0.5068806 0.46394664 0.64093727
0.42201698 -0.04905226 -0.5032427 -0.13026701 0.020140061 -0.4568828 0.34652805 -0.32816476
-0.26331133 0.14137793 -0.27935612 -0.1587181 -0.21659337 -0.63780326 0.00977456 -0.16278908
0.14281736 -0.063984685 0.3955609 -0.09529635 -0.024673307 -0.44957793 -0.043144375 0.38295242
-0.25205895 0.14596885 -0.4681807 -0.12450895 0.29361102 0.4131534 -0.47819105 0.3473519
0.15129071 0.20942198 -0.05994106 -0.2683202 0.08671757 0.17216107 -0.2721459 0.4758017
-0.20270103 -0.058050312 0.39164764 -0.34492418 0.0015472901 -0.15544148 -0.33338496 0.5298259
0.36782905 -0.44503823 -0.13569008 0.1874756 0.45835528 0.25183228 -0.17742796 -0.120492
-0.15995009 -0.4788742 0.30561265 0.5627702 0.0059818625 0.23183025 0.13269937 0.071003065
-0.19634642 0.04390992 -0.052066516 0.2907988 -0.380094 0.20527354 0.34532127 -0.46432683
0.28695625 -0.5996421 0.25858194 0.15223661 -0.56346935 0.06577124 -0.35445246 -0.5744298
0.35803843 -0.014140533 0.3225896 0.41921264 0.27420673 -0.50135106 -0.5217212 0.67430156
0.020212887 -0.5625527 0.13166468 -0.54272085 -0.42168877 -0.111830615 0.555847 -0.29340136
0.4036731 -0.7546598 -0.54626787 0.06633079 0.54049283 0.55452114 -0.2672687 -0.5048022
-0.54395294 0.33900583 0.06369265 -0.57110715 0.4540915 -0.5834995 0.067989044 -0.24515752
-0.53866404 0.3606064 -0.53685105 -0.15650919 0.11221783 0.022543034 0.03625577 -0.49685895
-0.3185322 0.15831012 0.1324422 -0.1872128 0.13055186 0.34412062 0.18941191 -0.111010045
00000000: 98df 2a3e 6364 ba3e 44f6 2bbe af38 8c3e
00000010: 69e2 5d3f a02e dd3e 1ab4 2fbf 0686 873e
00000020: e1b1 09bf 4e53 c0be c16d d93d f932 d7bb
00000030: 6fcb cabd 32f9 713e 8574 313d dc01 c0be
00000040: 4a1a 50be 2354 9dbb 19c3 713e 7ee7 e8be
00000050: 357f e6be 4b22 18bf f98c e7bc 26fd a03e
00000060: d6d3 03bf 5527 7bbe f84d bf3e d91b e73e
00000070: 02f5 0b3e 24c5 e03e e6d3 1a3f cb70 f93d
00000080: b0a0 043e 3b1a d4be 3548 133f 6084 25bf
00000090: a78e 553c 9314 843e c7d6 ec3d c9f8 343d
000000a0: afe4 8dbd ae96 cbbc 955d e7be cb10 fe3e
000000b0: 8352 b43e e46b 70bd 13f0 71bd 6a5d aa3e
000000c0: ac6d 30bf 86cb 513d 96be 7dbe 650d 8f3e
000000d0: e7c1 323f 968a 163f b6cd e7be 9719 4cbe
000000e0: b01a 193f cb1d eabe bbe4 853e cb9c c8bd
000000f0: 9ad9 89be f549 23bf af1b a5bd 36cc 0e3f
00000100: 6e51 bb3c 6a87 613e d1d1 cbbd 3660 6b3e
00000110: 74a4 4cbe d78c bc3e a50c ecbd 0639 edbe
00000120: 99c4 1fbf cea5 a7be 8822 0c3e eef7 3ebf
00000130: 5723 17be b439 3f3e 9281 0fbf 3670 823c
00000140: b84b f2bd 0f39 ae3d 36fc b0be 607e 0bbe
00000150: 5717 fa3e 37e7 913e f517 f73e 5040 abbe
00000160: 430e cbbe bcec 69be c175 fe3e c6ce 8b3e
00000170: 967a 063f f22d d4be 9e46 35bf 3e80 9c3e
00000180: a4c5 8a3e f8fc 6bbc 32b8 263f 7390 95be
00000190: d393 ffbd e41b 28bd f620 083f 1c76 11bf
000001a0: 2158 353e e5e1 133f b7ed 98be 23ab a8be
000001b0: 1be0 103d bedb c6bc e27a 203e d083 22bf
000001c0: 1862 263f 49a2 79be 8e78 0a3f 1c9f d8be
000001d0: 1abb d5be 0f09 ac3e cfd4 fcbe ed6c da3e
000001e0: d7e6 8dbe 4565 483d 5a91 a6be 4c60 b73e
000001f0: 04ad c53e edc2 01bf 6a8a ed3e 7714 243f
00000200: 9c12 d83e 06eb 48bd 83d4 00bf b764 05be
00000210: c5fc a43c 8bec e9be 206c b13e 3605 a8be
00000220: bed0 86be 60c5 103e c407 8fbe ff86 22be
00000230: a7ca 5dbe 1347 23bf 7a25 203c 2eb2 26be
00000240: b73e 123e 670a 83bd f586 ca3e bc2a c3bd
00000250: ad1f cabc 142f e6be 28b8 30bd 5712 c43e
00000260: df0d 81be dc78 153e 61b5 efbe 8cfe febd
00000270: 2f54 963e d888 d33e 75d5 f4be 1cd8 b13e
00000280: f4eb 1a3e b772 563e c284 75bd 4461 89be
00000290: fb98 b13d fe4a 303e b556 8bbe 489c f33e
000002a0: dc90 4fbe 2ac6 6dbd 0a86 c83e e799 b0be
000002b0: 71ce ca3a 0d2c 1fbe 6fb1 aabe aca2 073f
000002c0: 1754 bc3e 0ddc e3be 57f2 0abe 9bf9 3f3e
000002d0: 8bad ea3e 29f0 803e adaf 35be 82c4 f6bd
000002e0: f5c9 23be 002f f5be 4379 9c3e b511 103f
000002f0: 8003 c43b e964 6d3e 58e2 073e 0e6a 913d
00000300: 090f 49be e3da 333d b343 55bd 95e3 943e
00000310: ae9b c2be 3a33 523e f3cd b03e 3fbc edbe
00000320: eeeb 923e 2582 19bf da64 843e eae3 1b3e
00000330: 873f 10bf 12b3 863d cb7a b5be d50d 13bf
00000340: d050 b73e b2ad 67bc 772a a53e 0aa3 d63e
00000350: d364 8c3e 8b58 00bf 858f 05bf 079f 2c3f
00000360: 7f95 a53c 7403 10bf 1bd3 063e c1ef 0abf
00000370: 97e7 d7be 7307 e5bd fd4b 0e3f b438 96be
00000380: 3eae ce3e 6231 41bf 36d8 0bbf 70d8 873d
00000390: bd5d 0a3f 19f5 0d3f 71d7 88be b83a 01bf
000003a0: 8040 0bbf 2c92 ad3e 4b71 823d 1434 12bf
000003b0: ae7e e83e 3960 15bf d73d 8b3d 930a 7bbe
000003c0: e3e5 09bf 67a1 b83e 126f 09bf f243 20be
000003d0: 76d2 e53d 2bac b83c ee80 143d 4c64 febe
000003e0: a716 a3be 0c1c 223e ee9e 073e b6b4 3fbe
000003f0: 63af 053e 9430 b03e 32f5 413e 3c59 e3bd

sage.convs.0.Q.bias f4 [16]
-0.028629065 0.09219262 -0.09358569 0.30312228 -0.08686706 -0.044392586 0.017228233 -0.12680538
-0.030618895 -0.18440878 -0.11286338 0.017456856 -0.116560385 -0.15046667 0.06563217 0.1238507
00000000: 8087 eabc 7ccf bc3d dba9 bfbd d832 9b3e
00000010: 5be7 b1bd 00d5 35bd 3922 8d3c 45d9 01be
00000020: 7ad4 fabc a8d5 3cbe ea24 e7bd ae01 8f3c
00000030: 36b7 eebd ef13 1abe 296a 863d 70a5 fd3d

sage.convs.0.W.weight f4 [16, 32]
-0.20893408 0.06458556 -0.41930535 0.6009261 -0.22444783 0.26760027 0.093003295 0.12672962
-0.0770808 0.136022 0.01232338 0.3570406 -0.3571949 -0.21876249 0.3430612 -0.09984803
0.28161278 0.29658762 -0.022431744 0.17278701 -0.19200116 0.38170463 -0.1890156 -0.32460484
-0.09121981 -0.12928538 -0.29255074 -0.28223157 0.30408254 -0.11067229 -0.3002665 -0.17807005
-0.3764128 0.48345363 -0.27931497 0.2152181 -0.20894703 -0.1222187 0.01643521 0.26150498
0.39002886 0.27345413 0.09786207 -0.2879443 -0.09316579 0.07727551 -0.21015522 -0.42398506
0.19125508 0.06679274 0.16409205 0.12066093 0.026779598 0.33781502 0.26639763 0.369522
0.123866014 -0.463548 -0.24841006 0.044802222 0.46261227 -0.5903606 6.948018e-05 -0.19975184
-0.5875264 0.09423747 0.21600778 -0.5631238 -0.25397518 -0.08142785 -0.42552406 -0.49454218
0.38468805 0.066555746 0.24085875 0.09973148 -0.073637635 -0.5080394 -0.020495724 -0.024549592
0.0056214794 0.14046448 0.1257447 -0.060452048 0.22961909 -0.057897624 0.06821009 0.10499346
0.28997594 -0.2800832 0.06910923 -0.020080091 0.0035994712 0.014918713 0.09049078 -0.41866925
-0.09078268 0.16166987 -0.38501146 -0.107564196 0.037055533 -0.006434819 0.52928793 0.015552107
-0.38820568 0.4441665 0.14978167 -0.13821463 -0.28697467 -0.03292285 -0.14922073 0.13988526
0.3626452 -0.25845063 -0.05969381 0.22599137 -0.20487446 -0.04896196 -0.045972098 0.27312994
0.26074383 -0.30847132 -0.01180344 0.18458249 0.24376 -0.13672239 0.05034993 -0.21088639
-0.35586348 -0.1848146 -0.50564927 -0.5055708 -0.15870218 -0.4161744 0.4495162 -0.09727218
0.3886744 -0.11857816 0.13748327 -0.4947735 -0.3999658 -0.3722004 -0.2357551 0.39088356
0.397384 0.5443555 -0.21412835 -0.45825866 0.22106595 0.18236801 -0.44411713 0.07963316
0.41231456 0.047097124 -0.1527642 -0.41236526 -0.4987065 -0.18613665 -0.39199838 -0.5250517
0.42155364 0.073022015 -0.00026839192 -0.05799594 0.39602342 0.4277762 -0.072031505 0.06103189
0.14081073 0.08704845 0.034698248 0.17672811 0.54771703 0.20453778 -0.23065509 -0.33890212
-0.32148433 -0.08441008 0.15099508 0.12452019 0.08539235 0.2635135 0.49029702 0.080771446
-0.78662544 0.18769802 0.34190133 0.41321728 0.3842341 0.13742168 -0.53588897 0.105411604
-0.49429512 0.044032168 -0.180498 -0.002581629 -0.31465423 -0.48821858 0.09542714 -0.5519261
-0.049682517 -0.26801237 0.1097615 0.34933946 0.3544668 -0.1696849 -0.15565737 -0.15458906
-0.07253037 -0.507623 -0.21746016 -0.32016113 -0.3140909 0.06372433 -0.2856518 0.17427607
-0.4384131 0.23827545 0.521643 -0.53073597 0.33823514 0.24817444 -0.53022504 -0.25726372
-0.40832675 0.36148757 -0.030324515 0.3582837 -0.37400928 -0.080251485 -0.215648 0.27610502
-0.16920699 0.3411096 0.35347548 0.3361206 0.34789136 -0.17510736 0.084019065 0.44728976
0.18533613 -0.10276021 -0.67947525 -0.35158727 0.326151 0.2588012 -0.5901201 0.34921175
0.15862517 0.56535935 -0.47611806 0.040186614 0.32886943 0.28931266 -0.30641195 -0.4159868
00000000: d1f2 55be 6f45 843d 31af d6be 4bd6 193f
00000010: a7d5 65be e702 893e 8378 be3d 69c5 013e
00000020: 8adc 9dbd 5a49 0b3e 01e8 493c 07ce b63e
00000030: 40e2 b6be 4603 60be b8a5 af3e 207d ccbd
00000040: 8d2f 903e 55da 973e c7c2 b7bc 14ef 303e
00000050: f49b 44be ca6e c33e 4e8d 41be 9b32 a6be
00000060: 74d1 babd 6363 04be 36c9 95be a880 90be
00000070: b5b0 9b3e 27a8 e2bd 88bc 99be ff57 36be
00000080: 2eb9 c0be 3c87 f73e 5f02 8fbe 2262 5c3e
00000090: 36f6 55be cc4d fabd 22a3 863c fbe3 853e
000000a0: ddb1 c73e 2e02 8c3e e96b c83d 6f6d 93be
000000b0: b5cd bebd 9f42 9e3d ee32 57be 9214 d9be
000000c0: 5fd8 433e a2ca 883d bf07 283e 141d f73d
000000d0: e360 db3c 17f6 ac3e 4565 883e fd31 bd3e
000000e0: 77ad fd3d 2a56 edbe 355f 7ebe 8982 373d
000000f0: 84db ec3e df21 17bf e3b5 9138 bf8b 4cbe
00000100: 2168 16bf 93ff c03d 2531 5d3e e228 10bf
00000110: 0909 82be a5c3 a6bd 4ade d9be a234 fdbe
00000120: d5f5 c43e 614e 883d ada3 763e 0540 cc3d
00000130: 54cf 96bd df0e 02bf a6e6 a7bc 3a1c c9bc
00000140: 6334 b83b ecd5 0f3e 38c3 003e 919c 77bd
00000150: 4421 6b3e 0f26 6dbd bbb1 8b3d d006 d73d
00000160: ba77 943e 1167 8fbe 2489 8d3d 017f a4bc
00000170: 1be5 6b3b 9e6d 743c 3b53 b93d d15b d6be
00000180: 45ec b9bd c98c 253e 3920 c5be 9e4a dcbd
00000190: 8bc7 173d 2ddb d2bb 6a7f 073f 44ce 7e3c
000001a0: e5c2 c6be cb69 e33e 5e60 193e 2388 0dbe
000001b0: 58ee 92be 1cda 06bd 52cd 18be 153e 0f3e
000001c0: a2ac b93e a453 84be 7f81 74bd 486a 673e
000001d0: 9cca 51be 568c 48bd 3d4d 3cbd b0d7 8b3e
000001e0: 3780 853e f4ef 9dbe 3763 41bc 3103 3d3e
000001f0: 399c 793e f400 0cbe ba3b 4e3d 9af2 57be
00000200: bd33 b6be 0a40 3dbe 3b72 01bf 176d 01bf
00000210: d382 22be d014 d5be fd26 e63e a336 c7bd
00000220: 5500 c73e 1bd9 f2bd 6ac8 0c3e f452 fdbe
00000230: 51c8 ccbe 0d91 bebe c969 71be e421 c83e
00000240: ea75 cb3e e25a 0b3f 7644 5bbe e1a0 eabe
00000250: 1d5f 623e aebe 3a3e 5263 e3be b616 a33d
00000260: e51a d33e eae8 403d 386e 1cbe 8a21 d3be
00000270: 7556 ffbe 9b9a 3ebe 03b4 c8be ca69 06bf
00000280: e1d5 d73e 918c 953d f4b6 8cb9 278d 6dbd
00000290: 95c3 ca3e 7b05 db3e 4185 93bd 93fc 793d
000002a0: b030 103e 7546 b23d c01f 0e3d 37f8 343e
000002b0: 2f37 0c3f 5a72 513e d930 6cbe 9484 adbe
000002c0: 9899 a4be 31df acbd 749e 1a3e 7104 ff3d
000002d0: 2fe2 ae3d 3eeb 863e 3608 fb3e 806b a53d
000002e0: 4960 49bf e933 403e b10d af3e 3791 d33e
000002f0: 55ba c43e 45b8 0c3e 0530 09bf 0ae2 d73d
00000300: 4014 fdbe 135b 343d 78d4 38be 8c30 29bb
00000310: 5c1a a1be c9f7 f9be 4e6f c33d 074b 0dbf
00000320: e57f 4bbd eb38 89be a3ca e03d 9fdc b23e
00000330: ac7c b53e e1c1 2dbe a564 1fbe 984c 1ebe
00000340: cd8a 94bd 95f3 01bf e0ad 5ebe 29ec a3be
00000350: 86d0 a0be e781 823d f440 92be 6d75 323e
00000360: af77 e0be 7bfe 733e 658a 053f 50de 07bf
00000370: 282d ad3e 7121 7e3e d4bc 07bf 12b8 83be
00000380: 3410 d1be e614 b93e 1e6b f8bc f670 b73e
00000390: 257e bfbe e45a a4bd d4d2 5cbe a35d 8d3e
000003a0: 9944 2dbe eba5 ae3e bdfa b43e 0018 ac3e
000003b0: d11e b23e 584f 33be 3012 ac3d 2a03 e53e
000003c0: c1c8 3d3e f273 d2bd 17f2 2dbf 3f03 b4be
000003d0: 44fd a63e 9781 843e 1c12 17bf e2cb b23e
000003e0: a36e 223e 64bb 103f bfc5 f3be b89a 243d
000003f0: 9361 a83e ca20 943e 07e2 9cbe 39fc d4be

sage.convs.0.W.bias f4 [16]
-0.20570044 0.0032336398 -0.23907767 -0.12662075 0.05321811 0.4618572 0.15024333 0.13779551
-0.1038795 0.20758729 0.10054805 0.29021627 0.09227234 0.4786528 0.18968745 -0.29027238
00000000: 23a3 52be 79eb 533b c7d0 74be dfa8 01be
00000010: 3cfb 593d 8c78 ec3e 63d9 193e 441a 0d3e
00000020: c6be d4bd c391 543e 23ec cd3d 3a97 943e
00000030: 48f9 bc3d fb11 f53e 6d3d 423e 959e 94be

sage.convs.1.Q.weight f4 [16, 16]
-0.5677904 0.31965244 -0.2817587 0.26613158 0.5777998 0.5865812 0.10296851 0.1390844
-0.22805987 -0.09740031 -0.21651031 -0.33992606 0.3128247 0.301504 -0.45230588 -0.6066807
-0.029811686 0.33097416 -0.3821944 -0.12725353 0.3540095 0.11451034 0.012194424 0.06570216
0.54014915 0.39066607 -0.020225732 -0.26774314 -0.45169234 0.14643136 0.13784456 -0.033296693
-0.14743535 0.05527824 0.1294474 0.09107669 -0.09223212 -0.23738712 -0.27488366 -0.42407227
0.44605818 -0.5018669 -0.10942664 -0.2662559 -0.11188633 -0.54850703 0.11482201 -0.49542162
-0.3614965 0.21693528 0.18940835 0.18083672 -0.3399534 -0.31263483 -0.32434252 -0.057121065
-0.36394173 -0.41326573 -0.047211014 -0.4391088 -0.19184758 -0.27214786 -0.2286225 -0.08787277
-0.49721497 0.007851147 -0.18045294 -0.09162486 -0.27042088 0.07741928 0.4570811 0.29440364
0.67768687 -0.39535636 0.5131885 0.065722264 0.45857003 0.4702038 0.23157956 0.6345671
-0.52589893 0.040603947 0.45913288 -0.056903612 -0.62995327 0.2554758 -0.42907977 -0.2444692
0.063347965 -0.72644377 -0.56433105 -0.012127996 0.22262648 -0.22248694 0.255075 0.18163422
-0.6283359 0.4053137 0.39953175 0.47019398 0.1769647 -0.003780533 -0.54120255 -0.22406575
-0.32331726 -0.36376077 0.4776365 -0.16021802 0.6120878 0.50471056 -0.15267955 -0.48101717
0.2117142 -0.052311867 -0.33561063 0.36756098 0.4669052 -0.5000102 -0.16076763 0.017727818
-0.036679763 -0.33546776 -0.28893155 -0.0073810937 -0.57638645 -0.1406278 -0.7651817 -0.34255135
0.29425728 0.2621591 0.59873056 0.34973148 0.31280664 0.05110003 0.45333654 0.25272295
0.093140535 -0.47263518 0.38124 -0.31016862 0.09956618 0.1578728 0.33523685 0.2507
0.44766656 -0.32695144 -0.36476475 0.48300466 -0.55911934 -0.3197912 0.3871447 0.11500981
0.3703696 0.20749083 -0.09180953 0.31255704 -0.5626349 -0.68986315 -0.25390875 0.26519313
-0.24005315 0.2429548 0.038308553 -0.34713313 -0.15257819 0.42691955 -0.21182469 0.54446954
-0.12885918 -0.045814164 -0.16825552 0.12023641 -0.13911296 0.14777757 0.74720275 -0.12469805
-0.2721006 -0.43599302 0.05368764 0.3435098 0.48293918 0.37984595 0.075211436 0.2674395
-0.046135355 0.3006592 -0.09483523 0.447634 0.17708887 -0.23784886 0.3522859 0.084367104
-0.34299335 0.4459132 -0.35238737 -0.53480494 -0.34294632 -0.04246973 -0.10608466 -0.13596389
-0.10435929 0.106744915 -0.6454142 0.12238568 -0.11171313 -0.5535165 -0.020555485 0.25613323
-0.5082707 0.29232037 0.5205984 -0.4344024 0.6956652 -0.5393615 0.015888643 -0.27009463
0.17936298 -0.35323712 -0.016600179 -0.15121184 -0.2035251 -0.39727253 -0.5424575 0.43084767
-0.5957718 0.054763746 -0.40081918 0.37603626 0.06930197 -0.26385885 -0.35130194 -0.14199884
0.5380045 -0.6656261 -0.25299183 0.3510259 -0.3320586 0.2715358 0.08625308 0.033582848
0.12526256 -0.59793097 -0.43710214 -0.17010705 0.5620323 0.11136035 0.26359102 -0.017902672
0.04316184 -0.33738914 0.16211012 -0.6136019 -0.3567949 -0.2856617 -0.48374236 -0.5217455
00000000: b65a 11bf 7ca9 a33e ad42 90be 6642 883e
00000010: b0ea 133f 2f2a 163f 27e1 d23d 246c 0e3e
00000020: 8788 69be d079 c7bd e1b4 5dbe ca0a aebe
00000030: 8f2a a03e bb5e 9a3e a394 e7be 6d4f 1bbf
00000040: a337 f4bc 7275 a93e fcae c3be c04e 02be
00000050: bc40 b53e 6684 ea3d 1fcb 473c db8e 863d
00000060: 3747 0a3f 6205 c83e 6fb0 a5bc a115 89be
00000070: 3844 e7be 1af2 153e 2027 0d3e 1d62 08bd
00000080: 4bf9 16be 706b 623d dc8d 043e 6a86 ba3d
00000090: 32e4 bcbd 9c15 73be 8dbd 8cbe 0020 d9be
000000a0: bd61 e43e 597a 00bf 131b e0bd b152 88be
000000b0: a924 e5bd f56a 0cbf cd27 eb3d e7a7 fdbe
000000c0: 1216 b9be 4824 5e3e 43f4 413e 432d 393e
000000d0: 5f0e aebe ac11 a0be 3910 a6be c7f7 69bd
000000e0: 9256 babe 9197 d3be 5660 41bd ded2 e0be
000000f0: b173 44be f756 8bbe 041c 6abe a4f6 b3bd
00000100: f692 febe 19a2 003c a8c8 38be d1a5 bbbd
00000110: 9b74 8abe 008e 9e3d 8906 ea3e 13bc 963e
00000120: e37c 2d3f 266c cabe 5260 033f 6599 863d
00000130: b1c9 ea3e 8dbe f03e 3123 6d3e fd72 223f
00000140: 50a1 06bf 5350 263d 7713 eb3e c313 69bd
00000150: 9e44 21bf b9cd 823e 58b0 dbbe 2256 7abe
00000160: 94bc 813d 38f8 39bf 0078 10bf 81b4 46bc
00000170: 32f8 633e 9ed3 63be 3199 823e 52fe 393e
00000180: 9fda 20bf 4785 cf3e 6d8f cc3e 44bd f03e
00000190: 3c36 353e d2c2 77bb 408c 0abf 7e71 65be
000001a0: d789 a5be da3e babe c58c f43e 3110 24be
000001b0: c9b1 1c3f b634 013f 0758 1cbe e247 f6be
000001c0: 9bcb 583e f844 56bd 28d5 abbe f430 bc3e
000001d0: 330e ef3e ab00 00bf 45a0 24be ee39 913c
000001e0: 853d 16bd 6ec2 abbe d6ee 93be 1add f1bb
000001f0: 108e 13bf bc00 10be f3e2 43bf e462 afbe
00000200: e4a8 963e b839 863e 6846 193f 0110 b33e
00000210: 3128 a03e 444e 513d ba1b e83e e764 813e
00000220: 77c0 be3d 3dfd f1be e431 c33e 6cce 9ebe
00000230: 5ae9 cb3d 68a9 213e 2aa4 ab3e c05b 803e
00000240: 8d34 e53e 2e66 a7be 72c2 babe 634c f73e
00000250: 7222 0fbf acbb a3be d537 c63e 438a eb3d
00000260: 16a1 bd3e 7a78 543e a306 bcbd 7a07 a03e
00000270: d708 10bf df9a 30bf 5400 82be 65c7 873e
00000280: 7ed0 75be 25c9 783e 6ee9 1c3d 6fbb b1be
00000290: 753d 1cbe 3395 da3e 92e8 58be 5b62 0b3f
000002a0: a9f3 03be a2a7 3bbd 2d4b 2cbe 823e f63d
000002b0: a173 0ebe 0153 173e ae48 3f3f b161 ffbd
000002c0: c550 8bbe 7a3a dfbe 92e7 5b3d 84e0 af3e
000002d0: ce43 f73e 2b7b c23e 7408 9a3d d5ed 883e
000002e0: 6df8 3cbd 01f0 993e f938 c2bd 4930 e53e
000002f0: c956 353e a78e 73be d15e b43e a9c8 ac3d
00000300: d39c afbe bc4e e43e 1e6c b4be fae8 08bf
00000310: a996 afbe bdf4 2dbd ea42 d9bd 1e3a 0bbe
00000320: 53ba d5bd 149d da3d dd39 25bf 58a5 fa3d
00000330: dac9 e4bd 42b3 0dbf fa63 a8bc e523 833e
00000340: 071e 02bf 04ab 953e f045 053f fe69 debe
00000350: 1d17 323f 9813 0abf e628 823c d849 8abe
00000360: eeaa 373e 7fdb b4be 19fd 87bc 47d7 1abe
00000370: e268 50be 4e67 cbbe 7fde 0abf 1198 dc3e
00000380: 8084 18bf f34f 603d 2c38 cdbe d387 c03e
00000390: 31ee 8d3d 8218 87be d9dd b3be 2568 11be
000003a0: aaba 093f 7966 2abf 2588 81be abb9 b33e
000003b0: 9603 aabe be06 8b3e 74a5 b03d 2b8e 093d
000003c0: d444 003e 0112 19bf dacb dfbe 8b30 2ebe
000003d0: 59e1 0f3f e510 e43d 67f5 863e a0a8 92bc
000003e0: 78ca 303d 45be acbe 3200 263e 0415 1dbf
000003f0: d2ad b6be 4042 92be 14ad f7be 1d91 05bf

sage.convs.1.Q.bias f4 [16]
0.0033159603 -0.08891508 -0.15508209 -0.20680957 0.17615591 -0.07884289 0.00209412 -0.20867866
0.041070238 -0.13842167 0.13127385 -0.042653263 -0.13158475 -0.0032750596 -0.121512726 0.039144773
00000000: 9550 593b 1c19 b6bd d7cd 1ebe e3c5 53be
00000010: 3762 343e 6278 a1bd 813d 093b dcaf 55be
00000020: 4439 283d 69be 0dbe a76c 063e 30b5 2ebd
00000030: 27be 06be 62a2 56bb aadb f8bd 4556 203d
