src/rec_system/model/trained_model.pth (torch, 44190 bytes, 15 tensors)

proj.inputs.item_content.weight f4 [11, 16]
00000000: f57a 50bd 02d3 f7be 0029 633c 5366 63be
00000010: b7d8 c93e 9950 cd3e 5589 6ebd c0e0 06bf
00000020: fafe 013e 88f3 35be fc2a cabe 2314 60be
00000030: e2b9 b73d 48e9 a93e f4b3 c23c 523a 3cbd
00000040: 160e b6be c235 753e 720d 793e 163e c8bc
00000050: ecf9 17bf b2df 8c3e e683 3dbd 6119 bcbe
00000060: 04f8 a7be 63a6 1dbe e302 8bbd d812 603e
00000070: c6f3 013e 93be 9c3d 2083 96be 3ec0 fdbe
00000080: de0f 4bbe f400 3d3e 387a fc3e 8791 11be
00000090: 4f32 c23e dd1b cb3e 4acf c0be 4808 f23e
000000a0: be70 98be 10cd 74bd 96ee ca3e 49a1 c33d
000000b0: 4a81 803e 6e25 133e 8f05 9ebe 1a57 ce3e
000000c0: fe19 dd3e 273c 2a3d 59e4 d63e d301 a1be
000000d0: a985 553c 6027 833e 582c 813e f39e 813e
000000e0: db37 7c3e bf93 72be 9dd8 7ebe 4498 1fbe
000000f0: 1867 abbe a0c5 1dbf 81be 99be 38c6 59be
00000100: 415a 453e 70f3 b33e 9812 2bbe 4c3d eabe
00000110: 3187 3c3e 39f2 83be 03f5 8bbe 52e3 363f
00000120: cbae e2bb 9942 043f acb1 623e f4e9 b33e
00000130: 764b c5be d43e 95be ae75 14be 80c6 b2be
00000140: d3f4 e33e 58ff d6bb 703e 9c3e 3ad5 7ebe
00000150: 1fbb 04bf 5895 103e 2961 fc3e 9ee6 13bf
00000160: 1ceb 183d 7f95 353d 87e0 103e 0a40 4dbe
00000170: 9609 6cbd 4793 88be faeb 663e a81c c4be
00000180: 1350 023e 5547 943e 214d 963d 8935 31be
00000190: 631b a5be 53dc 8cbe f5d7 a93e 654f f7bd
000001a0: 124f 833e 3336 233e 1a4f 89be dd51 a33d
000001b0: 7674 d93e 6439 a9be 97bd febe 3c61 84be
000001c0: cdbf 353e f7ae 0b3e 9d91 7abd 8e36 a2be
000001d0: 5484 29bc 4f54 b23d 5a05 773c 658f 923e
000001e0: 35aa 18be c12f 153f f3ee 4c3e f5a1 3abe
000001f0: e5c9 5e3e 0e20 06be ce4e 6dbe 104d 37bd
00000200: 49c8 953e 0b15 b13e 115c ca3d 5f5d 693e
00000210: 84c3 0cbe 5020 62be 7e3e 3cbe ede2 81be
00000220: 20a2 cdbd 3652 00bf 075f 8e3e 3628 493e
00000230: d325 dcbb 80ad af3c 51af 28be 2fef 873e
00000240: c0b7 8ebe a1dd 9c3e 922b 9c3e c128 993e
00000250: 70ed b73d a966 c73e 74c8 6c3e d881 86be
00000260: de3c 9bbe 7665 0cbe a217 b0b8 c1f4 0cbe
00000270: f07f 77bd b4da f83e 711d 3e3e 000e bbbe
00000280: acba bf3d 13ed a83e 4003 8d3b 0a66 6b3e
00000290: 74fa c8be e934 893e f0cc 8fbc 98a2 603d
000002a0: 300c a63c d4c6 d03d 6050 b4be a992 b43e
000002b0: 6467 f63d 9c52 6abe 6c55 f93d 202d b53c
-0.05089851 -0.48403174 0.013864756 -0.22207002 0.39423153 0.40100554 -0.05823644 -0.5268669
0.12694922 -0.17768681 -0.3948592 -0.21882682 0.08971001 0.33185792 0.023767449 -0.045954056
-0.35557622 0.23946288 0.24321535 -0.024443667 -0.59365726 0.27514416 -0.046268366 -0.36738113
-0.32806408 -0.15395503 -0.0678766 0.21882188 0.12690648 0.07653537 -0.29396915 -0.49560732
-0.19830272 0.18457395 0.49311996 -0.1421567 0.37929007 0.39669695 -0.3765815 0.47271943
-0.29773515 -0.059765875 0.39635152 0.09552247 0.2509864 0.14369747 -0.30863616 0.40300828
0.43183893 0.041561272 0.4197109 -0.31446704 0.013032355 0.25615978 0.25229144 0.2531658
0.24630682 -0.23689173 -0.24887319 -0.15585428 -0.33477092 -0.61629677 -0.30028155 -0.2126702
0.1927271 0.35146666 -0.16706312 -0.4574989 0.18410946 -0.2577074 -0.27335367 0.71440613
-0.0069178096 0.5166412 0.22138089 0.3513943 -0.38534135 -0.29149497 -0.14498016 -0.34917068
0.44522724 -0.006561201 0.30516386 -0.24886027 -0.51848024 0.1411947 0.49292877 -0.5777377
0.037333593 0.044332024 0.1414815 -0.2004396 -0.05762633 -0.26674864 0.22550955 -0.38303113
0.12725858 0.28960672 0.0733893 -0.17305578 -0.32247457 -0.27511844 0.33172575 -0.1207569
0.25646263 0.15938644 -0.26818162 0.079745986 0.42471665 -0.33051598 -0.4975402 -0.25855434
0.17748947 0.13640963 -0.061174024 -0.31682247 -0.010346491 0.08707487 0.0150769595 0.28625026
-0.14908679 0.5827599 0.20013027 -0.18225844 0.21756704 -0.13098165 -0.23174593 -0.044751227
0.29254368 0.34586367 0.098808415 0.22789524 -0.13746458 -0.22082639 -0.18383214 -0.25368443
-0.100406885 -0.50125444 0.27806875 0.19644246 -0.006718376 0.021445036 -0.16473128 0.2654967
-0.27874565 0.3063784 0.30501992 0.29913905 0.089808345 0.3894551 0.23123342 -0.26270938
-0.30319875 -0.1371058 -8.396736e-05 -0.13765241 -0.060424745 0.48604357 0.18565919 -0.3653412
0.09361777 0.32993373 0.004303366 0.22988144 -0.3925358 0.2679818 -0.017553777 0.05484256
0.020269483 0.101941735 -0.3521757 0.35268143 0.12031439 -0.22883075 0.12174496 0.022116244

proj.inputs.score.weight f4 [63, 16]
00000000: 82fc 733e f03b 523d 28dd e5bc 6022 d8bd
00000010: da61 dcbd 255f 16be 505f 2b3d 70bb cc3d
00000020: 903c 89be fe1b dcbd 3c7b 5dbe 5c9c e83d
00000030: 607e 133e 0cea e23d 8ba1 83be c022 d23b
00000040: 80f0 5cbb 14fd d5bd 2153 85be 6288 95bd
00000050: 00a3 f93a ef4a 8a3e d03b 883c 7829 66bd
00000060: 703a aa3c dc53 2c3e 00a1 fb3d 433b 7bbe
00000070: 2a1e 7b3e 180d febc e9dc 26be 2b43 5bbe
00000080: 3682 38be 4099 fe3c 4065 47bc 8a0b 8cbe
00000090: 5c77 05be fa5e 0b3e 4492 74bd 67a8 6dbe
000000a0: c0d0 06be d019 b23c 4058 d83d 328e 4abe
000000b0: 66dc 713e c4f1 e1bd 6240 7cbe e400 6cbe
000000c0: 307b 1cbe 5661 073e a002 113e 808a 6dbb
000000d0: 8681 4cbe 0807 f5bd d0f9 c53c 68b1 013e
000000e0: 801d 4cbb 805f 80be c419 94bd 324d f7bd
000000f0: 308e 893d 24b1 af3d 2aa9 55be 5ad6 073e
00000100: 74a8 6cbd 1e29 663e ad25 66be d0ca d1bd
00000110: 024b 05be 5e18 21be 6186 80be 466f 1e3e
00000120: 2df6 27be bc64 b53d 1c30 26bd 5a14 6d3e
00000130: 743c ed3d c8b2 d83d fa60 febd 80f6 9c3d
00000140: ddc6 653d a3ba c63c f47b 42be f6c0 a2bb
00000150: 1b38 dc3d 5530 0b3d 40db 50be b932 ec3d
00000160: 18f5 913e ba9a 2fbe f605 28bd 4941 71bd
00000170: a7df 033d 843a 903e 5bb3 a03d 296f 5a3e
00000180: b8bd 633e c424 923d 39c6 5dbe d494 7ebd
00000190: 76b8 5abe b8f1 a33d 12bf 56be c498 50bd
000001a0: 00aa 4cbb 0047 e9ba ea3e 693e 24f1 eabd
000001b0: 9601 26be 80cf 823c 9a4d dabd 646c 903d
000001c0: aecf 0f3d 7948 2d3d 82d5 4c3e ad03 033e
000001d0: 49ba 4f3e e02d 313d 3905 eb3d 62d7 1c3e
000001e0: 8c6d c4bd 818a 3f3e 03d3 21be 16d7 55be
000001f0: d44a 6b3e a6de 373e a13b ffbd 6c81 313e
00000200: a6ab 6f3e c0d8 433e b08a 383d 6c41 29be
00000210: 00e8 75be a21d 2b3e a899 643e 5471 01be
00000220: c357 85be 09ab 22be 1370 813e 0a23 773e
00000230: 6c33 c6bd 5f30 7abe 2880 0bbe 0367 893e
00000240: 90da 97bc 16b6 1f3e 0864 2a3e dc8e 47bd
00000250: 8ede 413e c8cc 353d 5af9 71be 18d7 0c3d
00000260: 5db0 2abe d423 c1bd a823 1f3e 0e5d 86bd
00000270: 88e3 d7bc 5825 223d e814 3bbe d032 503d
00000280: 4f01 8d3e 824f 34be e0bd e5bd 70e7 043d
00000290: 5ece 173e ce33 033e 803a 41bc c320 43be
000002a0: 98a3 cb3d a07e c3bc 2ca5 163e a603 6ebe
000002b0: 5ca3 873d 6082 063d 0844 8cbe 018b 00be
000002c0: be54 79be c9ae 60be a029 2bbc 7a1e 66be
000002d0: 4054 2abe 46bb c3bd 9467 fdbd 2082 5d3e
000002e0: da9e 17be 201b 823c 8081 2cbe 7c9b 113e
000002f0: f085 a13c cf84 17be e6aa 4d3e 7036 5abd
00000300: 309e 033e b042 fe3d 602e 3bbd 72fa 403e
00000310: 5357 893e 0879 cebd d8d0 ab3d 6813 62be
00000320: 1c1d 1ebe 5ca5 9a3d 42fc 38be c24a 533e
00000330: 4a5c 1fbe c8ba 87be 90e8 633d f661 ffbd
00000340: 00e8 a5ba 001c e33c b81b aebd 2044 42be
00000350: 8291 0cbe 728a 2d3e 28a3 be3d aeef 89be
00000360: 80e9 493c a449 843d 400e 213e 126e 643e
00000370: a5ce 84be 9e93 7a3e 9e78 693e 6e56 103e
00000380: cdea 883e 8842 f93d c8a1 203d c004 803b
00000390: 5065 d4bc 55ed 24be fce5 52bd 08f4 9c3d
000003a0: f097 eb3c 2ea0 f3bd fdf7 823e d473 1e3e
000003b0: ec86 0c3e aa4f 3c3e 01c4 01be 2851 d93d
000003c0: 6c1f bb3d b027 74be 1c59 0e3e 87a5 71be
000003d0: 6c30 823d 60fd 4abc 27ba 5ebe 547b a6bd
000003e0: 0c70 edbd 40a0 b33b 4019 ed3c cc25 b23d
000003f0: a041 06be 4075 423e fad9 0abe 7014 df3d
0.23826793 0.051326692 -0.028059557 -0.105534315 -0.10760851 -0.14684732 0.041838944 0.09996688
-0.26804018 -0.107475266 -0.21629041 0.11357948 0.14403677 0.11079797 -0.25709185 0.006412834
-0.0033712685 -0.104486614 -0.26039985 -0.073014036 0.001904577 0.27010295 0.016630083 -0.05619189
0.020779818 0.16828865 0.12286568 -0.24534325 0.24523225 -0.031012103 -0.16295208 -0.21412341
-0.18018422 0.031078935 -0.012170136 -0.27352554 -0.13033813 0.1361045 -0.059709802 -0.23208772
-0.1316557 0.021740824 0.10563707 -0.19780806 0.23619232 -0.11032441 -0.24633935 -0.23047215
-0.15281367 0.13220724 0.14161158 -0.0036245883 -0.19971284 -0.11964232 0.024166971 0.12665331
-0.0031145513 -0.2507286 -0.07231477 -0.12075271 0.06716573 0.08578709 -0.20865312 0.13265362
-0.057777837 0.22476622 -0.2247531 -0.102437615 -0.13016894 -0.15731952 -0.25102523 0.15472135
-0.16402502 0.08857104 -0.040573224 0.23152295 0.11583796 0.10580975 -0.124208406 0.07664204
0.056097854 0.024258917 -0.18992597 -0.0049668504 0.10752889 0.03398164 -0.20396137 0.11533112
0.28507304 -0.17148867 -0.04102131 -0.05890015 0.032195713 0.28169644 0.07846709 0.21331467
0.2224034 0.07135919 -0.21657647 -0.062153652 -0.21359429 0.080050886 -0.20971325 -0.05092694
-0.0031229258 -0.0017797649 0.22777906 -0.11471775 -0.16211542 0.015968084 -0.106593326 0.07051924
0.03511017 0.042305443 0.20003322 0.12794371 0.20285906 0.04325664 0.114756055 0.15316537
-0.09591207 0.18705179 -0.15803151 -0.2088283 0.22977763 0.17956027 -0.12462545 0.17334527
0.23405322 0.19125652 0.045054138 -0.16528863 -0.24014282 0.16710523 0.2232424 -0.12640887
-0.2604352 -0.15885557 0.25280818 0.2413446 -0.09677777 -0.24432515 -0.13623106 0.26836404
-0.018536836 0.15596804 0.16639721 -0.048720226 0.18932554 0.044384748 -0.23630276 0.034384817
-0.1666884 -0.09430662 0.15540946 -0.065607175 -0.026353613 0.039586395 -0.18269694 0.05082971
0.2754006 -0.17608455 -0.112178564 0.03244728 0.14824817 0.1281273 -0.011793733 -0.19055466
0.099433124 -0.02386409 0.14711446 -0.2324358 0.06622955 0.03283918 -0.27395654 -0.12553026
-0.24348733 -0.21941675 -0.010446936 -0.22472563 -0.16633701 -0.09557204 -0.123732716 0.2163167
-0.14806691 0.015882075 -0.16846275 0.14219469 0.019717187 -0.14796756 0.20084724 -0.053274572
0.12853312 0.124150634 -0.045698524 0.18845537 0.26824436 -0.10081679 0.08389443 -0.22077715
-0.15440792 0.07551071 -0.18064979 0.20633987 -0.15562549 -0.2650969 0.05564171 -0.124698564
-0.0012657642 0.027723312 -0.08501381 -0.189713 -0.13727382 0.16947344 0.09308463 -0.26940674
0.012323737 0.06459358 0.15728092 0.22307613 -0.25938907 0.24470374 0.22799918 0.1409547
0.2674164 0.12170893 0.039216787 0.0039068162 -0.025927216 -0.1610616 -0.05148886 0.07663733
0.028758973 -0.11895786 0.25579825 0.15473872 0.13723344 0.18389764 -0.12672426 0.106111825
0.091368526 -0.23843265 0.1390118 -0.235983 0.06356892 -0.012389511 -0.21750699 -0.08128992
-0.11593637 0.00548175 0.028942704 0.086986154 -0.13110971 0.1899004 -0.13559714 0.1089257

proj.inputs.media_type.weight f4 [235, 16]
00000000: c7d8 acbd c8a8 edbc a85b d83d 6a9d b7bd
00000010: b854 6cbd d0e5 fa3d 72df cdbd 8e04 cdbd
00000020: f01c afbc 5cb8 173e 746b c43d 127d dcbd
00000030: 604b 053e a8f3 f13d 9c6e ecbd 80ab 1d3c
00000040: 28a9 8c3d 52d9 0dbe 3442 623d 71cc b3bd
00000050: a0fc 01bc 4445 283d 28f5 75bd 3e38 e3bd
00000060: 2066 00bc 1413 8c3d 7ea5 66bd 3c52 1ebd
00000070: 55e5 e9bd 85e1 14be 1009 ce3d 3113 06be
00000080: 66fc 01bd ce66 0e3e b8dd debc a4bc f6bd
00000090: 6838 103d d8d1 ea3c d2e7 123e 9ed2 f5bd
000000a0: ac14 b03d 2416 133e 6021 6c3c 4d6f 96bd
000000b0: 1030 67bd d8f3 b5bc d03c 0dbc d02c 193c
000000c0: 264d 0fbe 50c7 0d3d 6063 e23d c03b a93c
000000d0: 8c3a 2cbd f820 d7bc f1b2 13be 58c3 8a3c
000000e0: 448d f13d 9a08 edbd 1073 ff3c 0c67 c83d
000000f0: 006d 473c 447b a03d 4036 bdbb 6ab0 e4bd
00000100: 07f2 b7bd aa2f a4bd 8025 e3bb d8fd e53d
00000110: b28f d5bd 5c93 8a3d e6fe 8d3d a454 773d
00000120: 18b9 b0bc 0e01 25bd 5843 0c3d 4089 3e3c
00000130: ec9e 313d 523e e3bd fbf6 13be 78da afbc
00000140: 8d40 adbd 7e7b 2ebd 7a48 69bd 8cd3 c53d
00000150: 904b 4b3d 9824 0cbd 4080 723c ec10 a0bd
00000160: 4884 07be 69df b0bd 60f2 ed3b b8ec c03c
00000170: 244b ba3d 9163 8dbd f3b2 b8bd cdb9 15be
00000180: 2609 cb3b 2637 873e 15a9 8f3d 6601 85bd
00000190: 5a36 a2be 465e 26bd 3054 013e d6f3 93be
000001a0: 1bbc a0bc af11 40be 0da3 2d3d 7405 3a3c
000001b0: f874 d4bd 0380 8cbd 2eda 5cbd 692e 913c
000001c0: 779c b0bd 56c4 0f3e 8670 fbbd 725b 0cbe
000001d0: 22a3 9c3d cc57 d53d c270 113e 5e3c ba3d
000001e0: b0f1 02be 3051 c93c 342b 103d e407 d3bd
000001f0: 4cb6 313d f4f4 d3bd e0fb 9ebc a8ef dd3d
00000200: f631 37bd 702c 9e3c 0e5d 033e 9480 253d
00000210: 6425 7b3d 4e43 c23d 4f4d 04be 0049 fdba
00000220: 705a 64bd e949 86bd 8e75 3fbd fc0d 71bd
00000230: 74df e03d 40db 7c3d 2803 833d e49f d93d
00000240: 70bd 593c 6c9d 6ebd 4828 b4bc f0eb cf3d
00000250: 685a d8bc 58ed 143e d88b e1bd e889 ba3c
00000260: e499 143d 6628 5ebd 929f bfbd 3071 bcbc
00000270: c041 0c3c 070f c4bd f0db 1cbe 94be e73d
00000280: cc91 293d 1f59 b1bd 30cf 85bc c424 783d
00000290: e038 643c f49c d43d 5cab d1bd 7031 873d
000002a0: 687c 16be d440 6a3d c95f 1bbe 2e67 973d
000002b0: 2884 8e3d f46d a9bd 6090 dfbc c0b6 f2bd
000002c0: ceec 14bd cc6c 15be 6812 f03c a1e4 b5bd
000002d0: 9a95 57bd 84d1 c83d ce9a bf3d fea7 183e
000002e0: 8897 ff3c 5e39 0a3e 48b2 92bd 3e56 4abd
000002f0: 9b5b 1dbe 0636 74bd dfbf 17be 1c51 123e
00000300: 9e81 aa3d 7e30 063e 5c3f ec3d 8c4e aabd
00000310: cea6 33bd aed9 a4bd 40c8 4a3c 88eb 703d
00000320: ec35 a83d df40 c9bd 4a6d 083e 98c0 8a3d
00000330: f051 dabc 749d d4bd 002e f83d e609 86bd
00000340: 00f4 8739 c2af 8b3d 00d9 1b3d 7e97 adbd
00000350: 7869 463d 38a3 8a3d 8bae 07be 12d4 15be
00000360: d70e 92bd 2c5a 58bd 02e1 b83d e0dd 89bb
00000370: c4aa 163e 08de 0f3e f080 633d a51f 0dbe
00000380: f048 093d 986e 233d 5008 1a3c dc77 e83d
00000390: c000 50bc feed 083e f294 123e 4c03 183d
000003a0: 08d4 933d 0058 e138 dc2d a4bd 22fb b93d
000003b0: e025 39bd 98f7 cf3c 701d c3bc 3e49 2ebd
000003c0: d86c d33c 7e94 e8bd b0d7 15bc bc2d 043e
000003d0: c055 453b 4037 e73c f307 90bd 447f 19be
000003e0: 28af b43d b85a d6bd 409e 94bc 40b2 cd3b
000003f0: 49ba 09be 2010 00be e681 d5bd 14e0 9b3d
-0.084397845 -0.029011145 0.10564357 -0.08965571 -0.05769798 0.122508645 -0.100523844 -0.10010634
-0.021376103 0.14816421 0.095908076 -0.10766043 0.13017035 0.11814052 -0.115445346 0.009623408
0.068682015 -0.13852432 0.055238917 -0.087792285 -0.007933766 0.04108168 -0.060048252 -0.11094712
-0.0078368485 0.06839576 -0.05631017 -0.038652644 -0.11420695 -0.14539154 0.10060322 -0.13093258
-0.031734847 0.13906404 -0.027205333 -0.12047699 0.035210043 0.028664514 0.14346245 -0.12003063
0.08597693 0.14363915 0.014412254 -0.07345448 -0.05644232 -0.022211 -0.008620456 0.009349063
-0.13994274 0.034613907 0.110541105 0.020658374 -0.042048022 -0.026260838 -0.1442373 0.01693885
0.117945224 -0.11573906 0.031182796 0.0978528 0.012171984 0.07836011 -0.0057742894 -0.11166461
-0.0898171 -0.08016904 -0.0069319606 0.112300575 -0.10427798 0.06766388 0.06933384 0.060383454
-0.021572635 -0.04028421 0.03424391 0.011629403 0.04336445 -0.11095871 -0.14449684 -0.021466479
-0.08459578 -0.04259824 -0.056953885 0.0965949 0.04963261 -0.034214586 0.014801085 -0.078157276
-0.13234055 -0.08636362 0.0072615594 0.023550376 0.09096363 -0.069037564 -0.09018507 -0.14621659
0.006196159 0.26409262 0.07014672 -0.06494407 -0.31682092 -0.04061725 0.12629771 -0.2889697
-0.019620946 -0.18756746 0.042391825 0.011353839 -0.103738725 -0.06860354 -0.05391901 0.017722325
-0.08623593 0.1403974 -0.122773215 -0.13706759 0.076483026 0.104171365 0.1420317 0.090935454
-0.12787509 0.024574846 0.03519745 -0.103042394 0.043386742 -0.103494555 -0.019407213 0.108367264
-0.04472538 0.019308299 0.12828466 0.040405825 0.061314955 0.094854936 -0.12920116 -0.0019324124
-0.05575031 -0.06557066 -0.04674297 -0.058851227 0.1098012 0.06173253 0.063970864 0.106262
0.013289794 -0.058255598 -0.021991864 0.101524234 -0.026410297 0.14543664 -0.11013001 0.022770837
0.036279574 -0.054237746 -0.093566075 -0.02300319 0.008560598 -0.09573179 -0.15318274 0.11315647
0.04139881 -0.086595766 -0.016334146 0.060581937 0.013929576 0.10381499 -0.10237762 0.06601226
-0.14695895 0.05719073 -0.15173258 0.07392727 0.069588006 -0.08272925 -0.027290523 -0.11851263
-0.036358647 -0.14592284 0.029305652 -0.08881498 -0.052632906 0.09805587 0.093556985 0.14907834
0.031200185 0.13498446 -0.07162911 -0.049398653 -0.15366976 -0.059621833 -0.14819287 0.14288753
0.08325504 0.13104436 0.11535522 -0.08315763 -0.04386025 -0.080493316 0.012376845 0.05881837
0.0821341 -0.09826826 0.1332294 0.067750156 -0.026650399 -0.10381594 0.12118149 -0.06544857
0.00025931 0.068206325 0.038048744 -0.084761605 0.048440427 0.06769413 -0.13250177 -0.1463168
-0.07131737 -0.05282037 0.09027292 -0.0042073578 0.1471358 0.14049542 0.055542886 -0.13781603
0.033516824 0.039900392 0.009401396 0.11350986 -0.012695491 0.13372037 0.1431463 0.03711252
0.07218176 0.00010745227 -0.080165595 0.09081103 -0.045202136 0.025386617 -0.023817748 -0.042550318
0.025808737 -0.11356448 -0.009145662 0.12908071 0.0030110925 0.028224587 -0.07032766 -0.14989954
0.08822471 -0.10466522 -0.018141866 0.0062773526 -0.13449968 -0.12506151 -0.10425167 0.07611099

proj.inputs.item_category.weight f4 [6, 16]
00000000: 111e 6abe d1fb df3c 3fef 023f 706c ccbd
00000010: 9e80 d13e 0ca3 24bc 5f8a c4be 2e9c b0be
00000020: 92ab 913d 279b b5be bf33 01bd 6592 e23e
00000030: b8a8 3b3e 9030 443d 6499 0abe 3761 c0be
00000040: 7d82 3cbd 3694 cabc 68d6 8b3d c8d1 19be
00000050: 04ee 45bd da93 923e d01f 4d3e f81a 0bbe
00000060: 45eb 2f3e 4361 6a3e 435a 023f c4dc b5be
00000070: b1e0 243e e52c 61be cc51 d6bc d4fc 4a3e
00000080: 6a08 fcbe d081 98be a2bf fbbe 4078 d13e
00000090: e1de ecbd 22e5 a53e 2847 bcbe 4561 a9be
000000a0: 41a7 cb3d be62 e6be e9a4 16be 9952 0a3f
000000b0: e9bd d63e 1397 053c 03be eabe 5a2d f4be
000000c0: afc5 bb3d 6446 3e3d 6e68 c73d cf92 f53e
000000d0: 97d4 3abf a2dd a1be c6c8 a4be 9972 803e
000000e0: bcd7 cebe 543f c9bc 56fe dfbe 3d00 d3be
000000f0: b328 753e f00e 0b3d ed3b fe3d bb94 553e
00000100: 6b6a 9d3e aa6f 06bf 5e0b c7be 7d27 e9be
00000110: 0c05 d83e efd7 d63e 487e 22bf 7168 cb3d
00000120: e20c b5bc 68e5 7cbe 100f 12be 0b82 a8bd
00000130: dd7f 88bb ed97 55bf 91f8 08bf 7a6f b9bd
00000140: 0a76 92be e4f2 70be feb4 1cbe 7c3d 873e
00000150: 5317 01bf b40e c8bd 06ee 9cbe c023 bc3e
00000160: 88c5 a53d e9de 033f 873d ffbe 8a33 9fbe
00000170: 0ecb 70be 0e5b a13e 0a65 04bf 4858 5fbe
-0.22863032 0.027341755 0.5114631 -0.0998162 0.4091844 -0.010048639 -0.3838682 -0.34494156
0.071128026 -0.35469934 -0.03154349 0.44252315 0.1832608 0.047897875 -0.13535076 -0.3757417
-0.04602288 -0.024728876 0.06828004 -0.15021431 -0.048322693 0.28628427 0.20031667 -0.13584507
0.17179592 0.22888665 0.5091898 -0.35519993 0.16101338 -0.21989782 -0.02616205 0.19823009
-0.4922517 -0.2978654 -0.49169642 0.40912056 -0.11565948 0.32401377 -0.36773038 -0.33082023
0.099440105 -0.4499721 -0.14711346 0.54032284 0.41941765 0.008153695 -0.45848092 -0.4769085
0.091685645 0.04645385 0.09736715 0.4796357 -0.72980636 -0.31614405 -0.32184428 0.2508743
-0.40398967 -0.02456633 -0.4374873 -0.4121112 0.23941307 0.033949792 0.12413774 0.20857517
0.30745253 -0.52514136 -0.3887586 -0.4553794 0.4219135 0.4196162 -0.6347394 0.0993203
-0.02210087 -0.24696887 -0.14263558 -0.08227929 -0.004165633 -0.83434945 -0.5350428 -0.090544656
-0.28605682 -0.23530155 -0.15303418 0.26414096 -0.50426215 -0.097684294 -0.30650347 0.36746025
0.08094317 0.5151201 -0.4985163 -0.3109401 -0.23514959 0.31514782 -0.51716673 -0.2181102

proj.inputs.title.weight f4 [11, 16]
00000000: 4be8 abbd d51e d2bd 9625 bdbe a19a 2fbe
00000010: af83 eabe 9b79 90bd 6ac2 c03e e244 a23e
00000020: 66ef acbe 6c19 f03e 4df0 053e ddba e3bd
00000030: b69b b53e 4fe5 f23d fb1f 45be 3d49 3f3e
00000040: 1513 163e 01b2 ab3e c44e c7be aacd aabe
00000050: a0c4 2abf 5610 14be f323 923e 4dad 57be
00000060: d48d e43e d674 b8be b849 273d f088 263e
00000070: 4e65 833d 3a48 2dbd ca34 da3e f0b3 6f3e
00000080: ce64 e73d 76d0 e5be 6214 063f 676f 003f
00000090: 2b9a b73e 84ad 1abe 3e71 cdbe 74b3 993e
000000a0: e5f3 4fbe d53b 8bbe ea37 883e 8f9b ad3d
000000b0: 20e7 44be 7e8c 463e 891a 39be d01a bebe
000000c0: 7463 ab3e 6378 823e 2ddd 223f 3737 7cbd
000000d0: 3486 85be d559 8bbe 3576 383e 7fd6 cd3d
000000e0: 0421 953d c367 c43d 12e3 16be 2631 793e
000000f0: f4ff 18be d271 3a3e 0755 b53d b4cd fb3d
00000100: 0785 9f3d d037 b93e 950e d43d 4b0c 703e
00000110: effa 00be 6c17 6d3e c9a6 8ebe 84d5 c93b
00000120: 30cd 94be 04e8 73be 868e 85be 3714 4a3e
00000130: fc4c a8be db98 43be e014 f93e 9426 a2be
00000140: d70f 173e 75a2 4bbe 47d1 cfbd 18b1 c0be
00000150: 619b 0ebe cd71 cbbd f8ee 8f3e 2db9 6a3e
00000160: 15b6 d1be 236e cbbe 2d9c 1fbe 96fd adbe
00000170: e264 053d b025 5d3e 569f 823e 3109 3c3e
00000180: 7756 4abd b2f7 d73d 8519 f1bd 2100 3e3e
00000190: 6063 3c3e 29b8 6fbe c1c5 ac3e 0f00 14bf
000001a0: 35bd 543e 3353 7b3e 40cf 12bf 2fbd d33d
000001b0: 2026 1a3d 4fcf 1a3e d664 54be 570e 3d3e
000001c0: 7be3 bcbe 0eb7 5dbd 3524 983d 0e1e 223e
000001d0: d721 6fbe fd1c 6b3c 16ae 6f3d 906f 233d
000001e0: 00d8 b8bb 3519 273e 0d5f 71bc 123a f23d
000001f0: c2a4 813e 0a2b 843e 53b8 8ebe a260 5ebe
00000200: db61 38bd c2c8 55be 1d56 2cbc 1fad 9bbd
00000210: d04b 35be 4e12 ce3d 4c38 ba3e 35d0 d9bd
00000220: c428 f23e 1445 af3e d7c8 81be a8ab 9b3e
00000230: 61d0 09be ee4b a03e fbf3 17bf 3f0d 56be
00000240: cc1d 8a3e 3747 9d3e 095d 09be dd14 a93e
00000250: 00b8 93be 8383 abbe 59d2 a7bd 0859 c53e
00000260: 9111 513e c16f 0b3f 6322 3bbe d232 ecbe
00000270: e72a 663e 5034 e7be 84f7 bbbe 9f5a bd3c
00000280: 6360 65be f1ad e63e a465 e03d d07c cabe
00000290: c083 99be 0d27 a2be e715 cfbe ef56 e93e
000002a0: 3cc1 4cbe b858 5d3d c484 9ebd 58bb aebd
000002b0: 77e2 933e c926 903e 5172 c83e 887f 283d
-0.08393916 -0.10259787 -0.36942738 -0.1714883 -0.45803592 -0.070544444 0.37648326 0.31693178
-0.33776397 0.46894395 0.13079949 -0.11119626 0.3547036 0.118601434 -0.19250481 0.18680282
0.14655717 0.33534244 -0.3892728 -0.33360034 -0.66706276 -0.14459357 0.28543052 -0.21062203
0.44639456 -0.3602664 0.040841788 0.16263175 0.06415807 -0.04230521 0.426184 0.23408484
0.11298524 -0.44885606 0.5237485 0.50169986 0.35859808 -0.15105253 -0.4012546 0.30019724
-0.20307882 -0.27194086 0.2660516 0.08476936 -0.19228792 0.19389531 -0.18076529 -0.3712983
0.33474314 0.25482473 0.6361874 -0.061576094 -0.2607895 -0.27216974 0.18013842 0.100506775
0.07281688 0.095901035 -0.14735058 0.24335155 -0.14941388 0.18207482 0.08854108 0.12295094
0.07789045 0.36175394 0.10354344 0.2344219 -0.12595724 0.23153466 -0.27861622 0.0061594862
-0.29062796 -0.23818976 -0.260853 0.19734274 -0.32871234 -0.19101278 0.4864874 -0.31670058
0.14752136 -0.19886191 -0.10147338 -0.37635112 -0.1392646 -0.09933815 0.28112006 0.22922201
-0.4095923 -0.39732465 -0.1558692 -0.33982533 0.032566912 0.21596408 0.2551219 0.18362881
-0.049398866 0.10545291 -0.117724456 0.18554737 0.18397284 -0.23410095 0.33744624 -0.5781259
0.20775302 0.24543457 -0.5734749 0.10338818 0.037634015 0.15118144 -0.20741591 0.18462501
-0.36892304 -0.054129653 0.07428781 0.15831777 -0.23352753 0.014350173 0.05851563 0.039901316
-0.0056409836 0.1631821 -0.0147321345 0.11827482 0.25321013 0.25814086 -0.27875003 -0.2171655
-0.045015197 -0.20877364 -0.010518578 -0.076013796 -0.17704701 0.10062085 0.36371076 -0.106354155
0.47296727 0.3423239 -0.2534854 0.304044 -0.13458396 0.3130793 -0.5935666 -0.2090349
0.26975858 0.30718395 -0.13414396 0.3302373 -0.28851318 -0.33498773 -0.081944175 0.38544488
0.20416857 0.544674 -0.18274836 -0.46132523 0.22477303 -0.451571 -0.36712277 0.0231145
-0.2240005 0.45054582 0.109568864 -0.3954835 -0.2998333 -0.31670418 -0.40446398 0.45574138
-0.19995588 0.054039687 -0.07740167 -0.08531827 0.28883716 0.2815459 0.39149716 0.04113725

proj.inputs.item-texts.emb.weight f4 [181, 16]
00000000: 26d6 103e 1602 0f3e 38e7 4bbd b45b 033e
00000010: 747a 103d 92ad b6bd 53b4 adbd b810 15bd
00000020: b049 063e bb01 cebd 110a 2abe c82e f73c
00000030: c8c3 853c 681c f5bc f8d5 32bd 704a 38bd
00000040: 8c7a 683d c2d2 1a3e 9488 893d 4849 80bc
00000050: 42b1 1e3e 4468 1e3d 642b 45bd 72e7 113e
00000060: 2c37 16be 6ade 2c3e 9e95 99bd 2486 eb3d
00000070: 1ac1 89bd 48e3 4d3d ced3 213e e230 55bd
00000080: 2cc3 9b3e 5539 89bd df5d 35be c9b3 19be
00000090: 4007 99bd ad99 013d 568d 93be f80e 2fba
000000a0: 16de 8ebe 44ce a73d ee63 d1bd 9a50 eebd
000000b0: 1b64 2c3e df1a 57be 8434 85bd a081 78be
000000c0: 6c23 87bd 17ab 67be 8e3a 32be e28e fa3c
000000d0: 6ea2 5a3e ea22 293d 6bef a43c 70ea 6b3e
000000e0: 63d9 64bc 4dd6 963e 9b19 033e e570 a5bd
000000f0: 5ba4 bebd 037b 983e 0cd1 5dbe 4c0f a0bd
00000100: bf93 973d fea5 6abe 0682 a9be e9fa 1b3d
00000110: 77ce 03be 7b48 87bd aff3 8dbc 2274 b93e
00000120: 07ac a03d 1791 1a3e af60 be3d 3bd4 c13c
00000130: 5bc6 d13d ed98 273d 717b 1d3e 74a6 683c
00000140: fa0a 64be 696b 1dbe 02b0 973d b7cf 4bbe
00000150: b2ed f8bd 314c 3ebd 06aa 1a3d 9230 cabb
00000160: a73a 3abd eede 993d 8f6c 503e 906d 563e
00000170: 7648 aa3e 8b23 903b 0db9 2a3e 4b33 46be
00000180: df5e 97be e223 adbe 2cf6 a2be 3482 30bd
00000190: 006c 57bd 39e4 4b3d 35be a13d 89d2 2c3e
000001a0: c34b 113e 72fe eb3e c5e7 883e d805 14be
000001b0: 2cea 25bd 8256 c83e e3ea 2cbe 2933 e43d
000001c0: b38f 2dbe 883c 24be 30ad 76be dc2d babc
000001d0: de6c 84be a99e 763e d85b 06be 13d4 34be
000001e0: 449a c0bd 6b1f 33bd 2126 babd 59b6 2bbd
000001f0: 25fb b83e 2456 9b3d 8ee9 8ebe ad5d 28bc
00000200: 614b 74be 5799 ccbd 0fa4 efbc 8bbc 9cbb
00000210: 75a3 903e fec0 5abe a5b1 5f3e 3e1c 253d
00000220: 0944 0d3e 9250 923e 099a 783e a6d6 29be
00000230: 888f 843d e016 c53e ada4 6bbe e39c f4bd
00000240: d4f6 103e 29bb 05be 627d 033e 64f0 30be
00000250: f492 89be 604a 79bc 8770 e63d c143 23be
00000260: bfd9 a9bd 9e13 f4be 1539 8c3e 7fa1 c53c
00000270: a359 a23d 7da6 c5be eca6 ca3d 2c3d a5be
00000280: c042 953d 0152 8fbe 20ba adbe 7988 8e3d
00000290: 4d76 d5bb 1831 4fbd 43bb c03d cb56 c63e
000002a0: bbb0 883d 7a94 8cba 7863 6c3d 379f e1bb
000002b0: fff9 d6bd ffce 8dbd bc5e ccbd 86ae 2e3e
000002c0: ddb0 ae3e aace 373e 7d34 eabd e75e 2bbe
000002d0: a662 563b 40c0 35bc f5af 01be 6423 22bc
000002e0: 557d 283d 4701 37be 36b5 353e 4506 e6bc
000002f0: 5f3a fdbd 21cf 23be 8789 32bd a3b4 8b3d
00000300: cb9d aa3e 90e0 b9be b2fb 9cbd 7b45 2d3e
00000310: 564c 71be 1e54 313e d100 313d e4f0 563e
00000320: 19d8 a3bd 6bb5 e93d 4982 91be cc92 1cbd
00000330: ed2a 6fbe cd54 46be f950 70be 4faa 6bbc
00000340: c56e 5bbd 18ac 1ebe 5193 f0ba ba49 603d
00000350: e496 3d3d 8f92 d73c c484 963c c668 91bc
00000360: 237c 01be 3b3e b73e faab 84be 5129 143e
00000370: d5ae d8bd 36f8 133e b924 90bd fca0 443e
00000380: f773 3f3e 560d 2abe 3382 913e 9eb7 bebd
00000390: 5cd6 57bd 52d8 9d3c e7ee ffbd d07f 94bc
000003a0: f36b 523d d240 823d 5496 82be 4c4d ba3d
000003b0: b976 7abe 0178 59bd f741 97be e721 a63c
000003c0: f1f2 823d 6c1b 8e3d 2f59 10bd 3153 833e
000003d0: 4f7d 383e 51d6 b4ba 9d94 97be 450a 513e
000003e0: 0ba3 903e ceae 05bd 1cb6 17be ae97 8fbd
000003f0: a504 a7be 5dbb 673e 4505 b8bd 1394 d23d
0.14144191 0.1396564 -0.049781054 0.1282795 0.03527303 -0.08919825 -0.0848166 -0.036392897
0.13114047 -0.10058924 -0.16605403 0.030173674 0.016328707 -0.029920772 -0.043661088 -0.044992864
0.056757495 0.1511946 0.06715503 -0.015659943 0.15497306 0.038673654 -0.048137084 0.14248446
-0.14669484 0.16881719 -0.0749924 0.11500195 -0.06726284 0.05026558 0.15803453 -0.05204857
0.30422342 -0.06700388 -0.1771159 -0.15009989 -0.07472086 0.031640697 -0.28818768 -0.0006677951
-0.27903813 0.08193639 -0.10224138 -0.11636467 0.16835062 -0.21006344 -0.06504157 -0.24268198
-0.06598553 -0.2262386 -0.1740515 0.03058571 0.21351025 0.041293062 0.020133695 0.2303865
-0.013967845 0.29460374 0.12802736 -0.080781735 -0.09308692 0.2978135 -0.21661776 -0.07815418
0.07401227 -0.22914883 -0.33107013 0.038081083 -0.12871729 -0.066056214 -0.017328111 0.36221415
0.078453116 0.1509441 0.09295785 0.02366077 0.102429114 0.040917326 0.1537912 0.014199842
-0.22269812 -0.15373005 0.07406618 -0.19903456 -0.12154712 -0.04645938 0.037759803 -0.006170341
-0.04546609 0.075132236 0.20353912 0.20940232 0.33258408 0.0043987683 0.16672154 -0.19355504
-0.29564568 -0.3381644 -0.3182844 -0.04309292 -0.05259323 0.049778197 0.07897607 0.16877188
0.14189057 0.46092564 0.26739326 -0.14455354 -0.040506527 0.391285 -0.16886477 0.111425705
-0.16949348 -0.16038716 -0.24089503 -0.022726946 -0.2586431 0.24083962 -0.13120973 -0.17659025
-0.09404424 -0.043731134 -0.09089304 -0.041921947 0.36129108 0.075847894 -0.27912563 -0.01027624
-0.2385688 -0.09990185 -0.029253034 -0.0047832183 0.28249708 -0.21362683 0.2184511 0.040310137
0.13795485 0.28577095 0.2427751 -0.16585788 0.06472689 0.38494015 -0.23012038 -0.11943986
0.14156657 -0.13059677 0.12840798 -0.17279202 -0.2686993 -0.015215486 0.11251932 -0.15943815
-0.08293485 -0.47671217 0.273873 0.024124859 0.07927253 -0.38603583 0.09895119 -0.32273233
0.07288122 -0.27992252 -0.33931065 0.06959624 -0.0065143467 -0.05058393 0.09410717 0.38738093
0.06674334 -0.0010725402 0.05771205 -0.006885435 -0.10496902 -0.06924247 -0.09979007 0.17058763
0.3411931 0.1794993 -0.114357926 -0.16735421 0.0032712608 -0.011093199 -0.12664779 -0.009896133
0.04113515 -0.17871581 0.17744908 -0.028079161 -0.12364649 -0.15996982 -0.043588188 0.06821563
0.3332351 -0.3630414 -0.076651946 0.16921036 -0.23564276 0.17317244 0.04321367 0.2099033
-0.08000202 0.11411556 -0.28419712 -0.038225934 -0.23356219 -0.19368286 -0.23468389 -0.014383866
-0.053572435 -0.15495336 -0.0018354451 0.05475781 0.04628648 0.026315002 0.018373854 -0.017750155
-0.1264501 0.35789666 -0.25912458 0.14468886 -0.105802216 0.14450154 -0.07038254 0.19202036
0.18696581 -0.1660665 0.28419647 -0.09312366 -0.052694663 0.019268189 -0.12496739 -0.018127352
0.05137248 0.0636002 -0.25505316 0.090967745 -0.24459352 -0.05309296 -0.29542515 0.020279838
0.06393994 0.06938824 -0.035241302 0.25649408 0.18016551 -0.0013796781 -0.2960557 0.20414074
0.28249392 -0.03263741 -0.14815563 -0.070113525 -0.3262073 0.22630067 -0.0898538 0.10282149

sage.convs.0.Q.weight f4 [16, 16]
00000000: 477f a33e 97ea 16bf d747 4cbe 0114 1bbf
00000010: 6b11 f63e d060 af3e 32b2 e5be df81 cd3d
00000020: 501b 0f3f 53cf 18bf 92a3 e3be f783 1abf
00000030: 8672 b63e 0ff3 de3e 6b90 a13d fcd0 cabd
00000040: a327 8abd f347 e0be 5f1b 2abe 588e ba3e
00000050: 2af3 a4bd 14d0 bdba 70b7 073f 2225 c3be
00000060: 3a50 ee3e bd56 02bf 51dd c7bc 6d8e 74be
00000070: 0dcd 19bf 341f 323d 3a79 0c3f a8e9 d93d
00000080: e9dc 9a3e 6245 1f3f 5d6a 963c 506c e7be
00000090: 4b43 26bd b376 a3be d478 103f ea37 74be
000000a0: b138 173f 9f46 27be a139 c5be 2f04 7c3e
000000b0: f778 043e abde 253f 6a77 523e e024 bcbe
000000c0: b920 093f c497 8e3e ae12 b8be 542e 0c3f
000000d0: ee80 7dbe b1d2 b6bd 9e27 9abe 9482 c23e
000000e0: 96dd 7bbe cdd7 71be a0b0 5fbd b2f7 b83e
000000f0: 1c15 e03e bc62 8a3e 9497 b53e 6eef 9d3e
00000100: 5fd7 77bd 1301 37bf d2ba 07bf 2828 df3e
00000110: 2737 c0bd fbc5 ae3e c48e e4be 0475 fabe
00000120: 5243 8a3d 5e21 043f 1e3b 9d3d 99b8 0b3f
00000130: 32e7 bdbe 5888 6dbe 6407 4a3f 672d 15bf
00000140: e9df e23d 8d53 d9be 0bdf f4bd b46a 963e
00000150: e524 d63d 2c54 a4be c40b 20bf 014e 29be
00000160: 4800 a8be 8087 4fbe 11c0 ac3e f6bd dc3e
00000170: 1a13 593d 302d 083e 4c62 083f 88d4 ec3e
00000180: 0b30 15be 45c2 1e3f 199e 943e 2041 013f
00000190: 9f13 b33e 43d8 c83c 7a76 4ebe eecb 793e
000001a0: 0a27 a0be 2acf 233f 9a49 ab3e 3e3f 45bb
000001b0: 846c 1d3f d782 083f 8e50 d7bd dfe2 ecbe
000001c0: 1f85 8dbe 580c 8bbe 0c58 2cbf a258 abbe
000001d0: d34b 983e d900 75be e992 cabe 0b35 913e
000001e0: da9d a4be 52ef de3e 9e3a 043f 6f7e e1bd
000001f0: ae6c 0ebf efcc 2e3e d950 d23e 56f2 69be
00000200: 5dc8 91bd b948 cd3e fed4 c2be 0291 f13d
00000210: 5475 afbe a679 bfbe 1e6b d7bd e8a3 03bf
00000220: cb47 b43e 2c0b 4e3a 7ddd 433f b9d8 0e3f
00000230: aece 22bf 70cf d63e c74f c73d b264 babe
00000240: c35c 033e 4271 61be 3c47 0ebe 9b60 f53e
00000250: f962 9f3e be97 943e dd30 00be c6bf cf3d
00000260: 42cd 1d3e 522a 6fbe f09b 913e 73f2 dcbe
00000270: 6ab6 c1be 1c39 05bf 49be ff3e 8e36 e8bd
00000280: 3d07 9d3e fefc 8fbe b645 bfbe a229 6a3d
00000290: d7b0 12be 1467 8dbd 6113 17bf da96 bcbe
000002a0: 8296 ebbe 03ca 7cbe 0af8 123f 94e6 97be
000002b0: 3413 973e ac96 8e3e 9ebd 23bf b1d2 a63d
000002c0: 50e5 16be 5515 743e 5cf1 773e 7b16 153d
000002d0: 8aa7 bebe ee5b c53e 643e ac3e 750e a03e
000002e0: 2b6c d1be 52ae 5abe d3ef 063e 1de9 fe3e
000002f0: fda6 483b 4954 76be 5e77 e6be 4d91 fa3e
00000300: 090f 053f 66db d73d f713 a9be 59bc 9f3e
00000310: 46be 1f3e a53f 063f bd3b e3be 5602 b93e
00000320: 6f80 b4bc c50a ed3d d254 173f e801 fb3e
00000330: 17fa 033f 9186 443e afda 16be 823e 13bf
00000340: 0a5e fdbc 9219 6fbe 5c02 9c3e 6036 84bd
00000350: f88e dfbe c9cd cb3d e47c 3dbe 6cbd 4b3e
00000360: 4341 38bf c704 123f c246 15bf 5c14 893e
00000370: 34a5 6ebe 5963 61be f897 b2be 413b 0cbf
00000380: c725 a63d ec43 223e eabc e5be 4e00 85be
00000390: bc4e ec3e df4c 673e b7f4 003e 999a 053f
000003a0: e57b 4e3e e18c 0ebf 912b 06be 815a a5be
000003b0: 5e66 0dbf d9d9 1e3f be22 9bbe b4c3 f8bd
000003c0: 6a8b f1be a2da 48be efdb 3d3f 8e24 ea3e
000003d0: 2051 913e 2d3b 2ebe 0709 cdbd 83d0 91be
000003e0: 3e7f 1e3f d300 90be 4fab 4b3e 989d cdbe
000003f0: 0160 353e a4c9 cfbd c5bf d3bd 0904 d33e
0.31933042 -0.58951706 -0.1994928 -0.605774 0.48060164 0.3425355 -0.44862515 0.100345366
0.5590105 -0.5969135 -0.44460732 -0.6035761 0.3563425 0.43544814 0.07888874 -0.09903142
-0.06745841 -0.43804893 -0.16612004 0.36436725 -0.08054192 -0.0014481568 0.5301428 -0.38114268
0.46545583 -0.509136 -0.024397524 -0.23882456 -0.6007851 0.04348679 0.5487248 0.106402695
0.30246666 0.62215245 0.018361265 -0.45199823 -0.04059152 -0.31926498 0.5643437 -0.23849455
0.5907088 -0.16335534 -0.3852053 0.24610971 0.1293677 0.6479289 0.20553365 -0.36746883
0.53565556 0.27850163 -0.3595175 0.5475819 -0.24756214 -0.08926905 -0.3010835 0.37990248
-0.24596247 -0.23617478 -0.054611802 0.36126477 0.43766105 0.27028453 0.35467207 0.30846733
-0.06050813 -0.71486014 -0.5301944 0.43585324 -0.093855195 0.34135422 -0.44640172 -0.489174
0.067511216 0.51613414 0.07677291 0.5457855 -0.3709045 -0.23196542 0.7891753 -0.58272403
0.11077864 -0.42446557 -0.119566046 0.29378283 0.10456256 -0.32095468 -0.6251795 -0.16533662
-0.32812715 -0.20266533 0.33740285 0.4311368 0.052996732 0.13298488 0.5327499 0.46255898
-0.14569108 0.6201518 0.2902687 0.5049 0.34975907 0.024517184 -0.20162383 0.24394199
-0.31279784 0.6398798 0.3345459 -0.003009751 0.61493707 0.53324646 -0.105134115 -0.4626684
-0.27640626 -0.27157855 -0.6732185 -0.3346606 0.2974535 -0.23926105 -0.3956521 0.2836078
-0.3215168 0.43541962 0.5165194 -0.110104434 -0.5563458 0.17070363 0.41077307 -0.2284635
-0.071182944 0.40094545 -0.38053125 0.11795236 -0.34269202 -0.37397498 -0.10518478 -0.51421976
0.35211024 0.0007859941 0.7650984 0.5579944 -0.6359662 0.41955137 0.09732013 -0.3640495
0.12828355 -0.2201586 -0.13894361 0.47925267 0.31130198 0.2902202 -0.1251864 0.10144
0.15410331 -0.23355988 0.28439283 -0.43153724 -0.37834483 -0.52040267 0.49949864 -0.113385305
0.30669585 -0.28122705 -0.37357873 0.05716861 -0.14325272 -0.06904426 -0.59013945 -0.3683384
-0.46013266 -0.24686436 0.5740973 -0.29668105 0.29506838 0.2784933 -0.6396121 0.08145655
-0.14735913 0.23836263 0.24213165 0.036398392 -0.37237197 0.385467 0.3364135 0.3126103
-0.40902838 -0.2135556 0.13177423 0.49787226 0.003061711 -0.2405559 -0.45012945 0.4893898
0.51976067 0.10539894 -0.33023044 0.31198385 0.15599927 0.52440864 -0.44381514 0.36134595
-0.022033898 0.1157432 0.591138 0.49024892 0.5155348 0.19191958 -0.14731859 -0.57517254
-0.03092863 -0.23349598 0.3047055 -0.06455684 -0.43663764 0.0995136 -0.18504673 0.19896477
-0.7197458 0.5703854 -0.5831109 0.26773345 -0.23305207 -0.22010554 -0.34881568 -0.54777914
0.08112674 0.15846223 -0.44870692 -0.25976795 0.4615382 0.22587918 0.12593351 0.5218902
0.2016445 -0.55683714 -0.13102557 -0.32295612 -0.55234325 0.6205116 -0.30299944 -0.121467024
-0.47176677 -0.19614652 0.7416372 0.45731014 0.28382206 -0.17014761 -0.100114875 -0.28479394
0.61912906 -0.2812563 0.19889568 -0.40159297 0.17712404 -0.10145882 -0.103393115 0.41214016

sage.convs.0.Q.bias f4 [16]
00000000: e808 45bd f355 973d 720f 633d 840a 77be
00000010: 8f5a 493e c059 31be 83b9 8abe 8d8b 13be
00000020: f96e eabc f9ae 58bd 2a25 6fbd e6a9 f2bd
00000030: 054e 72bb 827e 043e 268b e1bd 23a9 233e
-0.048104197 0.073894404 0.05543465 -0.24125105 0.19663452 -0.17319393 -0.2709466 -0.14408703
-0.028617369 -0.052901242 -0.05838505 -0.11848812 -0.0036972773 0.12938884 -0.110128686 0.1598249

sage.convs.0.W.weight f4 [16, 32]
00000000: 9afe e2bc 0a1f 86be 9ac6 d1bd bef0 a7be
00000010: 191a 1fbd 2b73 40be ea0e 523d 01df 9cbd
00000020: 3664 b83d d380 9bbe 050c d6be 0937 e43c
00000030: f49a 783d ea6b 483e a95e 023f 3df2 813e
00000040: caab 23bf 9423 473d 4bb6 8a3c e416 efbb
00000050: a5ff 4e3e 972e 42be 7eb9 45bd 0e41 e5be
00000060: 72c5 923e 1385 cf3e 884c 91bd 3642 9c3d
00000070: d7c9 f9bd 4fb4 c53d 38d6 383e 4d13 dcbe
00000080: 3c48 b33e 0c3d 36bd 3df3 e93d 16bd b53d
00000090: 6fe3 123f a11f e53e d736 613e df6c 8b3d
000000a0: 24b6 fa3e 34de 34be c6d6 d63e f075 e53e
000000b0: 24a1 94be c9f7 ef3e 1f63 313d 323d 233f
000000c0: f62b 5e3e a94b 6d3e abab c03e 756d 08bf
000000d0: dafd 2c3f f94b 32bf a989 0dbe b96d cdbe
000000e0: 537e 2ebf 1a1a b0be 5a8e 04bf 1953 5dbe
000000f0: 6c43 13be 874a c1be 73db 123f 2de0 92be
00000100: ea63 313d 3678 c6be 388e ab3d 7997 313e
00000110: 6d54 ddbe e9e5 86be 000e b4be 886d b6be
00000120: 3699 5abe 29b4 3d3e 9dd2 9fbe 390a 153e
00000130: a8fd 82be c4ef aabd 4d5d 07bf 7b25 6bbe
00000140: 8617 b53d 5a4e c6bd 8afd 90be c1be 5f3e
00000150: 7108 c0bd 93c1 24be 0135 563c 6aeb a33c
00000160: 8bb4 a93e bb72 673e 00d6 1abe 6efc 2cbe
00000170: 1d79 80be fea9 c2be d404 1c3e fcb9 41be
00000180: b66a 913e eaed efbe 2e02 09bf f5da 0ebf
00000190: c642 c93b 5c56 97bd f3e2 1c3e 5efa cbbd
000001a0: e7a4 abbe b7a4 0b3e daeb a13d 1a19 4b3e
000001b0: bc85 b6be 9307 85be 499c 853e 1e8e e3be
000001c0: f654 03bf 433d f33d 4032 42bd 5089 84be
000001d0: 3f64 7e3e 98a3 c5be f0f7 07bf 04ff 42be
000001e0: 12db c3bd bef8 1b3e d759 893e 88dd e33d
000001f0: 10f1 263e 7ba2 0ebe 5d2c 303b 1933 2e3e
00000200: 0b9c 793e 745d d5be 4d77 ae3e 2064 2a3e
00000210: 0b9d e63e 71ee b53e 53cd db3e a3ed 343e
00000220: 891f a13e 024b 0cbe 2999 fdbe 8d0d 853e
00000230: c1f8 2bbe 0b84 863e 2f4d d7bd 469a 00be
00000240: 26cd 8b3e 82d8 9ebe 9e12 54be 555d c1be
00000250: 2b8b acbd 70ce d5be 47c4 e73d be6b dabd
00000260: e9b3 88be 7012 823e d990 bd3e 6778 02be
00000270: 11b5 9abe f7bc b2be 40e4 f83c f266 953e
00000280: f307 a53e da26 b53e 6d91 0abc 8204 94bd
00000290: 9b26 d73d 4ba3 1bbd 6e72 473e 7ac4 b83d
000002a0: 4160 27bd 35c4 00be b82b 743e 6bab 8c3e
000002b0: 44a2 e53e 2e41 a4bd c6c2 ebbe 87e2 1abe
000002c0: 3797 043d 5a4b bb3e cb2c f33d 5d06 ccbe
000002d0: 1040 a33e 101b 643d 40c9 843e de39 893d
000002e0: 2d39 903e b67e b33c e471 973e 96d3 3c3e
000002f0: 5439 61bd 33fd d2bd a284 943e 55e9 ac3c
00000300: 8698 c93e 4537 023e 2a30 86bd 81dc 093e
00000310: 7078 bf3e e8e9 f1be 254e 1bbe b385 863e
00000320: 6708 6a3e dbd3 37be 7234 ccbe b1bb 503e
00000330: 2135 ef3e a953 c43d fe38 86be 6840 a6be
00000340: 9b83 593e ff34 4fbe 7d9c 39be cea7 a1be
00000350: 46c1 9fbe d554 273e e3be 02be 669d 8b3e
00000360: e5ff 073f ac1c ed3e a26e 91bd 459b 933d
00000370: 8909 d0be 52d8 813e 430d c0be e38a dbbe
00000380: 587c 453e c761 3f3e 99b6 ca3c 3d56 54be
00000390: 513f 8f3e bc7b 6bbe 393f 5f3b 80ea 873e
000003a0: 78b2 d4be 87e6 e63e 4324 5a3e f406 d23e
000003b0: 32c0 7e3e b7dc e53d 4454 d23e 0f2d ffbe
000003c0: 78e5 923e ce07 96bc a91b c4be a982 09bf
000003d0: b83b 5e3e 5e57 983e 9199 dd3d 6ff4 443d
000003e0: 4d6f 373e 6e26 09be 70f4 15bf 28b9 c1be
000003f0: 98d7 a7bd d8ca 71be 9b27 163f 9609 993d
-0.027709294 -0.26195556 -0.10242958 -0.3280086 -0.038843248 -0.18793933 0.051283754 -0.07659722
0.09003489 -0.30371723 -0.41806045 0.027858274 0.06069465 0.19572416 0.5092569 0.25380126
-0.63934004 0.048617914 0.016932627 -0.00729643 0.20214708 -0.18963085 -0.048272602 -0.44776195
0.28666264 0.40531215 -0.07094675 0.07629816 -0.12196701 0.09653532 0.18050468 -0.42983475
0.35016048 -0.044491813 0.11423347 0.08873956 0.57378286 0.44750693 0.21993576 0.06807875
0.48967087 -0.17662889 0.41960734 0.44816542 -0.2902919 0.46868733 0.04330742 0.6376525
0.21696457 0.23173393 0.37630972 -0.5329202 0.67574847 -0.69647175 -0.13822044 -0.40122774
-0.68161505 -0.34394914 -0.5177971 -0.2161373 -0.14381188 -0.37752172 0.573661 -0.28686658
0.043308176 -0.3876359 0.083767354 0.17342938 -0.43228474 -0.26347283 -0.3516693 -0.3563044
-0.21347508 0.18525757 -0.31215373 0.14554681 -0.2558415 -0.08346513 -0.5287674 -0.22963516
0.08842377 -0.09682913 -0.28318435 0.2185011 -0.0937661 -0.16089468 0.013074161 0.020009715
0.33145556 0.2260236 -0.15120697 -0.1689317 -0.25092402 -0.3802032 0.15236217 -0.18918604
0.28401726 -0.46861202 -0.5351895 -0.5580285 0.006141993 -0.073895186 0.1532095 -0.09959863
-0.33524248 0.13637052 0.07906313 0.19833794 -0.35648906 -0.2598234 0.260958 -0.44444364
-0.51301515 0.11876919 -0.047411203 -0.2588601 0.24842928 -0.38601375 -0.531127 -0.19042593
-0.09563269 0.15231606 0.26826355 0.11126238 0.16302896 -0.13929169 0.0026881911 0.1701168
0.24375932 -0.41672862 0.34075394 0.16639757 0.4504169 0.3553348 0.42930087 0.17668776
0.31469372 -0.13700488 -0.49530914 0.259869 -0.16794111 0.26272616 -0.105127685 -0.1255885
0.27304953 -0.31024557 -0.20710227 -0.3776652 -0.08424982 -0.41759062 0.11316734 -0.106650814
-0.2669976 0.25404692 0.37024572 -0.12741242 -0.30216268 -0.34909794 0.030382276 0.29180104
0.32232627 0.35381204 -0.008457524 -0.07227422 0.1050541 -0.037997525 0.19477245 0.0902185
-0.04086328 -0.12574847 0.23844802 0.27474532 0.4485036 -0.080202445 -0.46047038 -0.15125476
0.032370772 0.36580926 0.11873778 -0.39848605 0.31884813 0.05568987 0.25934792 0.067004904
0.28168622 0.021911006 0.2957908 0.18440089 -0.054986313 -0.103022 0.2900744 0.021107355
0.3937418 0.12716396 -0.06552155 0.13463022 0.37396574 -0.4724877 -0.15166529 0.2627388
0.22854768 -0.1795191 -0.39883763 0.20384099 0.46720222 0.095862694 -0.26215357 -0.32471013
0.2124161 -0.2023506 -0.18126102 -0.31573337 -0.31202143 0.16340955 -0.1276813 0.27268523
0.5312484 0.46310937 -0.0710118 0.0720735 -0.40632275 0.25360352 -0.37510118 -0.428794
0.19285715 0.18689643 0.024745272 -0.20736022 0.27977994 -0.2299642 0.0034064783 0.26546097
-0.4154241 0.45097753 0.21302895 0.4102093 0.24878004 0.11223739 0.41079915 -0.49839064
0.28690696 -0.018314268 -0.38302353 -0.53714997 0.21702468 0.29754156 0.10820306 0.048084673
0.17913552 -0.13393566 -0.5857611 -0.37836576 -0.08195418 -0.23612535 0.58654183 0.074725315

sage.convs.0.W.bias f4 [16]
00000000: b73d 173e 30e9 123f 8f5b 7cbd 90af 3dbe
00000010: 6669 0e3d 424b 8cbc aaef 363c b717 4b3e
00000020: 35cb 0bbe 2472 1cbe 0af7 4cbd 867a 99bc
00000030: 0807 05bd 651b db3e 01af 7abe eb7b f43d
0.14769636 0.57387066 -0.061610755 -0.18524003 0.034768485 -0.01712573 0.011165539 0.19833265
-0.13651736 -0.15277916 -0.050040282 -0.018735182 -0.03247741 0.42794338 -0.24480821 0.11937698

sage.convs.1.Q.weight f4 [16, 16]
00000000: a037 0e3e 7d2f d3bd 20ec c03e 9b4a 563b
00000010: b83f bcbe 2cb5 dcbe 940f 13bf 293a 3dbd
00000020: dc6b 153f 64b4 e93d 3aa0 a9be 0b14 cdbe
00000030: 770c 853e aa6a 73be cae8 c7be b106 843d
00000040: a728 fabd dcd5 d6bd 5084 0bbf b4ca b2be
00000050: 7449 3abe 41fd 713c 2b69 a53e 67c9 86bd
00000060: f53f 25bd b704 bf3d e3c3 9bbd a409 dcbd
00000070: 076f 2a3f d454 903d 94d9 b3bd 7c73 6b3d
00000080: b0c6 213d 9c28 6abe c4dd 27bf 9875 28bf
00000090: a1c1 993e ecaa a03e 39d9 f2bd 169d 08bf
000000a0: 63bc bebe 30f2 21be f91a 2fbf 74c9 17bf
000000b0: 8260 bfbe 4307 febd d497 b6be 60e2 7e3e
000000c0: 175c ebbe 3582 de3e ffe9 393e 9164 093f
000000d0: 39e3 c7be 197c c2be 0a26 c2be 00b8 80be
000000e0: fdc6 05bf 5306 b9be 328c 673e a6fd 383f
000000f0: cd54 c13d 8d7e 90be 8ffa d53e e131 193d
00000100: f79e 793d 83c8 fdbe a769 233d 133d 603e
00000110: 6b8a bd3e e15b 05bf 88b8 f0be 36d4 c23e
00000120: dd43 ba3e 1417 a73e 2e29 14be fbd8 debe
00000130: d7ef 80be 3bec 81be a551 62be 6a23 75be
00000140: b066 04be 675f f1be 70f8 a73e 7c92 d13d
00000150: f03e 81be 548f bb3d 5c1f 9f3c 0675 9bbe
00000160: b28f c5be f91b f93e 5c2b 3ebe 641b 4cbe
00000170: 85a0 cf3e 9f11 fbbe fb19 8e3c 512a c43e
00000180: fd90 06bf 6394 133e 172f e5be 82f0 2d3e
00000190: 167a 30bf 69e9 723e 955e 0ebf 0859 be3d
000001a0: 798e 66bd d034 0a3f 79c2 36be e523 1fbf
000001b0: 0ede ce3e d5dc 97be 050e cbbe a8e5 63bd
000001c0: ce86 fb3d b689 2ebe 9929 fabe 7be5 9a3e
000001d0: b54b 313e 5762 173e 697d 14be 2041 7a3c
000001e0: 2655 153d bd1a de3d 0ca2 18bf 30f4 dfbe
000001f0: 19db 38be b0f3 933d 191a c63e 41fb c3be
00000200: 7edc 2d3e 1627 bfbe 89b5 06bf 3680 06bd
00000210: 0396 e93e 04c3 eb3d 3b34 de3e 5cab 18bf
00000220: a8e4 593e 1477 a83e cf2b 0abe e2e6 e7bd
00000230: b6b9 14bf 7b32 6fbe cd00 57be 73b2 a33e
00000240: 0369 32be c818 9f3e 0ef7 0cbf e135 023e
00000250: 1e1f d7be 2b2a 29bf 591f cc3e 084e bcbe
00000260: a53d 26be 54a6 f93e 42ee 0cbf e2f3 86bd
00000270: 0caf 503e e713 f7bd 0b91 233f 2f19 583e
00000280: 90cf eebe 5b21 bebe ba01 883e 7610 19be
00000290: 65e9 123f 0ba2 3d3e 84d3 09bf 5353 83be
000002a0: a9b2 123e fedc b3be c554 23bf 86b0 c33c
000002b0: e592 243e 927b e9bd c23a 9fbd a494 c63e
000002c0: 6e50 52be 5803 28bd 1704 00be 825b fcbe
000002d0: 36dc 0c3f 7f71 30be 00d1 15bf 12e3 953e
000002e0: df5d a83e 2635 01bf 1879 9dbe 88ad 18be
000002f0: 4348 13be c3db bdbe e8f0 693d 1e61 793e
00000300: 531d 473e 237a 58bd d941 173f 27e4 26be
00000310: ce94 7bbe db42 3ebb 5303 9c3e f47c e8bd
00000320: 1016 debe 8f3a 083f c734 cc3e 4d8a 9b3e
00000330: 5e92 1cbe e41c c8bd c4af 543c f529 bebe
00000340: 580c 6a3e 4a20 5abc a70d bbbe 8343 10bd
00000350: 8682 8e3e 8178 25bd d8c7 8fbe 090d 803d
00000360: caf3 8c3e a7c4 0ebf 129c f03d ed92 2a3e
00000370: 6547 063c 53e9 53be 046f 2cbe fb8c efbd
00000380: cd98 543d 35e8 583e 0724 933e 7643 9bbe
00000390: eb3f 91be 9191 33be 83c5 973e 92c1 26bf
000003a0: e684 18bf eeed f3be d401 dabe b1ed a1be
000003b0: 777e a33e 69ea 763d 77d6 19bf 506e 513e
000003c0: 5cc6 93be eb2c 953e 7df5 dfbe 2c17 883e
000003d0: 1a65 cc3c 7ba7 953e f052 25bf 2c2f 033e
000003e0: 0fec c2be 90d3 3c3d a56f 193f 41b0 71be
000003f0: 0598 303f 3a4e f23c bbd6 863e 1f4c 823e
0.13888407 -0.10311792 0.3768015 0.0032698277 -0.36767364 -0.43106973 -0.57445645 -0.046198044
0.58367705 0.1141136 -0.33130056 -0.40054354 0.25986072 -0.23771158 -0.3904479 0.06446589
-0.12214785 -0.10490009 -0.5449877 -0.34920275 -0.18192083 0.014769853 0.323068 -0.06581383
-0.040344197 0.09327071 -0.07605722 -0.10744026 0.66575664 0.0704743 -0.08781734 0.05748318
0.039496124 -0.22867054 -0.6557276 -0.65804434 0.3003054 0.31380403 -0.11857838 -0.53364694
-0.37253103 -0.15815043 -0.6840053 -0.5929177 -0.37378317 -0.12403729 -0.3566271 0.24891043
-0.45968696 0.43458715 0.18155669 0.5366908 -0.39040545 -0.37985304 -0.37919647 -0.2514038
-0.5225676 -0.36137637 0.22612074 0.72262037 0.094400026 -0.2822155 0.41792724 0.037401084
0.060942616 -0.4956704 0.03989568 0.21898298 0.37019667 -0.5209332 -0.47015786 0.3805253
0.363799 0.32634795 -0.14468834 -0.43524918 -0.25182983 -0.25375542 -0.22101457 -0.2393929
-0.12929797 -0.471431 0.3280673 0.10233018 -0.2524333 0.09158197 0.019424133 -0.3036272
-0.38586193 0.48654154 -0.18571228 -0.19932324 0.40552154 -0.4903688 0.017346373 0.38313535
-0.52564985 0.14412074 -0.4476249 0.16986278 -0.6893629 0.23721851 -0.5561307 0.09294325
-0.056288216 0.53986835 -0.17847623 -0.62164146 0.4040379 -0.2966067 -0.39659134 -0.05563894
0.12281571 -0.1704472 -0.48859861 0.30253205 0.17314036 0.14783607 -0.14500965 0.015274316
0.036458157 0.10844944 -0.59622264 -0.43740988 -0.18052329 0.07224214 0.38691786 -0.3827763
0.16978642 -0.37334508 -0.5262075 -0.032837115 0.45622262 0.11511806 0.43399224 -0.59636474
0.21278632 0.3290335 -0.13493274 -0.11323334 -0.5809587 -0.233591 -0.20996399 0.31972083
-0.17422871 0.31073594 -0.55064476 0.12715866 -0.42015928 -0.6607997 0.39867666 -0.36778283
-0.16234453 0.4875971 -0.5505105 -0.06589486 0.20379275 -0.12064343 0.63893193 0.21103357
-0.46642733 -0.37134823 0.26563817 -0.14947686 0.5738738 0.18518846 -0.5383837 -0.2564951
0.14325966 -0.3512954 -0.63801223 0.023887884 0.16071661 -0.11400522 -0.07774879 0.3878528
-0.20538494 -0.041018814 -0.1250156 -0.49288565 0.55023515 -0.17230795 -0.58522034 0.29274803
0.32884118 -0.50471723 -0.3075645 -0.14909947 -0.14383034 -0.37081727 0.05711451 0.24353454
0.1944478 -0.052850854 0.5908485 -0.1629797 -0.24568483 -0.0029031548 0.30471286 -0.11351958
-0.43376207 0.53214353 0.39884016 0.30378953 -0.1529021 -0.097711354 0.012981359 -0.37141386
0.22856271 -0.013313362 -0.36533853 -0.035220634 0.27833956 -0.040398125 -0.28082156 0.06252486
0.27529746 -0.5576882 0.11748518 0.1665761 0.008195733 -0.20694475 -0.16839224 -0.11696812
0.051903535 0.2118233 0.28738424 -0.30324906 -0.28369078 -0.17535998 0.29642877 -0.65139115
-0.59577787 -0.47642463 -0.4257952 -0.31626657 0.31932423 0.060282145 -0.6009287 0.20452237
-0.28862274 0.29135832 -0.4374198 0.2658018 0.024950553 0.2922934 -0.6457968 0.12810963
-0.38070723 0.0461002 0.5993598 -0.23602392 0.68981963 0.029578317 0.263357 0.254487

sage.convs.1.Q.bias f4 [16]
00000000: 0ffe 1ebe f774 99bd a23c 28be d2f4 d8bc
00000010: 517d 55be 30d3 2dbe cf14 9bbe b1dc 42be
00000020: 3ff0 91bc d350 29be 3cff 62be 0a79 cabd
00000030: e7fc 3dbd ea18 a8be 541f 60be 98af 6f3b
-0.15526603 -0.074930124 -0.1642938 -0.026483927 -0.20848586 -0.16975093 -0.30289313 -0.190295
-0.017814754 -0.16534738 -0.22167677 -0.098863676 -0.046383765 -0.32831508 -0.2188695 0.0036573168
