src/rec_system/model/output/neumf_factor8neg4_Epoch4_HR1.0000_NDCG1.0000.model (torch, 28302 bytes, 17 tensors)

embedding_user_mlp.weight f4 [25, 4]
0.011616477 0.023271143 0.024163943 0.02742773 0.02146595 0.018668752 0.029836698 0.028517198
0.027858717 0.009219682 0.019334052 0.02690155 0.018553734 0.018989595 0.0034354555 0.01508085
0.020394797 0.020473609 0.016363129 0.0039980747 0.024403095 0.005137409 0.020807792 0.01025954
0.028466305 0.009130311 0.029675083 0.009778674 0.011435094 0.0059811417 0.017835647 0.016866013
0.032476813 0.02419148 0.012481755 0.0047801444 0.0070134923 0.014314691 0.016720122 0.022416962
0.014686385 0.016930498 0.03098441 0.013273441 0.023504859 0.026175775 0.018099643 0.019240258
0.011916963 0.014637398 0.011049056 0.02255238 0.011946129 0.01455491 0.0055155875 0.015560393
0.019674053 0.015315869 0.01946378 0.014840152 0.019032719 0.013866862 0.018745452 0.019947754
0.015657889 0.002965834 0.023977166 0.017367914 0.0207345 0.00974382 0.0074842167 0.022021152
0.014354172 0.013581232 0.016925858 0.023633666 0.003961893 -0.0025104103 0.019891301 0.014407093
0.027341586 0.022837438 0.019761808 0.017786905 0.019970687 0.030416137 0.010230819 0.013237941
0.014210284 0.010828585 0.014660381 0.023174405 0.018603355 0.022667957 0.013599405 0.021530448
0.0027027833 -0.010075336 0.008998388 0.004484581
00000000: 0953 3e3c 20a3 be3c 76f3 c53c 1eb0 e03c
00000010: 5cd9 af3c 36ef 983c 176c f43c e69c e93c
00000020: f737 e43c 260e 173c 7262 9e3c a460 dc3c
00000030: 00fe 973c 1190 9b3c 6125 613b ab15 773c
00000040: fd12 a73c 45b8 a73c f80b 863c 4802 833b
00000050: 00e9 c73c b657 a83b 1a75 aa3c a117 283c
00000060: 2b32 e93c 4d97 153c 2919 f33c bb36 203c
00000070: 435a 3b3c 74fd c33b 101c 923c 982a 8a3c
00000080: 6806 053d 362d c63c 4680 4c3c c2a2 9c3b
00000090: 70d1 e53b 2a88 6a3c a3f8 883c c7a3 b73c
000000a0: 2a9f 703c d4b1 8a3c 04d3 fd3c d978 593c
000000b0: 438d c03c 946e d63c b445 943c bf9d 9d3c
000000c0: 5e3f 433c b2d1 6f3c 1a07 353c c5bf b83c
000000d0: b2b9 433c b877 6e3c 1abc b43b 05f1 7e3c
000000e0: 7b2b a13c 69ef 7a3c 8172 9f3c 1c24 733c
000000f0: 81ea 9b3c d631 633c 1090 993c 7969 a33c
00000100: f944 803c 705e 423b c36b c43c 2847 8e3c
00000110: 66db a93c 8ba4 1f3c 293e f53b b465 b43c
00000120: c32d 6b3c d183 5e3c 19a8 8a3c 649b c13c
00000130: c4d2 813b b285 24bb 15f3 a23c ba0b 6c3c
00000140: 76fb df3c 9415 bb3c 84e3 a13c d8b5 913c
00000150: 9199 a33c 432b f93c 2a9f 273c f3e3 583c
00000160: 40d2 683c 616a 313c 1832 703c 40d8 bd3c
00000170: 1066 983c 27b2 b93c 0ad0 5e3c 9f60 b03c
00000180: 2e21 313b 0613 25bc fa6d 133c 64f3 923b

embedding_item_mlp.weight f4 [24, 4]
0.011739956 0.010998822 -0.015625494 0.017091857 0.016718747 0.008727597 -0.005607061 0.006102387
0.02374495 0.019774888 -0.012560454 0.013422987 0.014849077 0.011053166 -0.021266134 0.020776462
0.0018681103 0.0181312 -0.02993356 0.018757667 0.021273827 0.027393175 -0.014639074 0.015116907
0.010380838 0.014442068 -0.009651642 0.022878403 0.013606736 0.0046266275 0.0037764204 0.026374713
0.016015079 0.017671052 -0.011458295 0.004614212 0.005481368 0.012126128 -0.020670256 0.015281352
0.01191913 0.013131438 -0.012635842 0.018946767 0.014702291 0.023901157 -0.01578905 0.010968744
0.022668095 0.031527117 -0.019986736 0.011688779 0.0052319253 0.0191549 -0.023091653 0.021879358
0.024028907 0.03572307 -0.022618908 0.019089783 0.012834747 0.03355181 -0.0096745035 0.00832722
0.021852853 0.015924618 -0.015853534 0.005252177 0.0054239063 0.01417972 -0.020275168 0.0069016847
0.0026258596 0.012610917 -0.012641959 0.007152003 -0.005581342 0.018682962 -0.0073174518 0.01019445
0.011319992 0.016394597 -0.01644202 0.017349478 0.020959357 0.005473619 -0.014703188 0.01417586
0.016169682 0.022111755 -0.02320735 0.010830168 0.023575699 0.013512269 -0.020106832 0.011401327
00000000: f258 403c 6734 343c 0901 80bc 3904 8c3c
00000010: c1f5 883c 32fe 0e3c 70bb b7bb 88f6 c73b
00000020: c584 c23c f2fe a13c 5dca 4dbc 17ec 5b3c
00000030: 8b49 733c 5718 353c 5136 aebc 6633 aa3c
00000040: 61db f43a e287 943c 3a37 f5bc aea9 993c
00000050: 7346 ae3c a767 e03c bad8 6fbc e7ac 773c
00000060: 6414 2a3c 6c9e 6c3c ec21 1ebc 7d6b bb3c
00000070: caee 5e3c f79a 973b d27d 773b c80f d83c
00000080: 0e32 833c e2c2 903c 93bb 3bbc d132 973b
00000090: 0c9d b33b abac 463c ab54 a9bc a35e 7a3c
000000a0: 7448 433c 3e25 573c 9006 4fbc 4036 9b3c
000000b0: e1e1 703c 5ccc c33c 0a58 81bc 3fb6 333c
000000c0: 71b2 b93c 9422 013d 39bb a3bc 4b82 3f3c
000000d0: 9270 ab3b bdea 9c3c b52a bdbc 573c b33c
000000e0: 45d8 c43c 5b52 123d 4a4b b9bc 2d62 9c3c
000000f0: d548 523c 9f6d 093d cf81 1ebc e46e 083c
00000100: c104 b33c 5874 823c 45df 81bc 741a ac3b
00000110: 06bb b13b 0e52 683c 1c18 a6bc 8727 e23b
00000120: 9d16 2c3b 059e 4e3c 3820 4fbc 595b ea3b
00000130: b1e3 b6bb 030d 993c 3cc7 efbb 9f06 273c
00000140: 7d77 393c f64d 863c 6ab1 86bc 7e20 8e3c
00000150: f5b2 ab3c 0b5c b33b a4e5 70bc de41 683c
00000160: 4876 843c b623 b53c 571d bebc 0471 313c
00000170: d321 c13c 9062 5d3c 15b7 a4bc a2cc 3a3c

embedding_user_mf.weight f4 [25, 4]
0.037214525 -0.009823518 0.00508183 -0.026570888 0.018896248 0.044820912 0.0026692336 -0.032223206
0.038604677 -0.014432924 -0.03280267 -0.04970883 -0.0004986044 -0.02587185 0.037569243 0.010893592
-0.042742413 -0.01622495 -9.1171474e-05 0.0074480614 0.008012923 -0.040674232 -0.038423017 0.037601724
0.043200545 -0.0039591603 -0.029233694 -0.041618854 -0.012058541 0.028016545 -0.001552289 0.035470475
-0.017420843 0.007473788 0.0152748255 0.05217403 0.0070080617 0.033340733 0.04543382 -0.013622947
0.039216887 0.026421163 0.019613322 -0.0021795696 -0.03875443 -0.006339092 -0.02652971 -0.041387428
0.03475079 0.003296993 0.014893389 0.058614008 -0.03451746 -0.042825565 -0.05549258 0.031057274
-0.029345771 0.031703755 -0.027959952 0.024266955 -0.018329473 -0.024548132 0.029555883 0.040932324
-0.001705622 0.013191426 0.03930668 0.03872139 -0.022808844 0.033019505 -0.043115254 -0.020547742
0.024132812 0.025957396 -0.032840867 -0.017255444 0.041177034 0.0077667995 0.034162685 0.016214952
-0.023698304 0.031417187 0.0268777 0.02718765 -0.010263375 -0.017016452 -0.034743108 -0.024116125
-0.00070611434 0.022223692 -0.036128998 0.044300407 0.01870288 0.03841194 0.030867461 -0.009935589
0.0005820139 0.0023104511 0.0047950246 0.004524812
00000000: 426e 183d d2f2 20bc 7b85 a63b 31ab d9bc
00000010: 4ecc 9a3c 2296 373d 4fee 2e3b 7bfc 03bd
00000020: f01f 1e3d 1278 6cbc 185c 06bd 7c9b 4bbd
00000030: c6b4 02ba 34f1 d3bc 35e2 193d 097b 323c
00000040: ab12 2fbd 30ea 84bc 5033 bfb8 de0e f43b
00000050: a348 033c 069a 26bd 7461 1dbd 4404 1a3d
00000060: 0ef3 303d d8bb 81bb 807b efbc 8878 2abd
00000070: 3091 45bc f482 e53c 2d76 cbba 7d49 113d
00000080: 28b6 8ebc aee6 f43b 4343 7a3c 70b4 553d
00000090: e2a3 e53b 4b90 083d d018 3a3d c832 5fbc
000000a0: e3a1 203d 3271 d83c 1eac a03c 1cd7 0ebb
000000b0: f7bc 1ebd 28b8 cfbb d654 d9bc dd85 29bd
000000c0: d856 0e3d 5d12 583b 6703 743c 3e15 703d
000000d0: 2e62 0dbd dc69 2fbd 304c 63bd d36b fe3c
000000e0: 8b66 f0bc ccdb 013d 450c e5bc 7ecb c63c
000000f0: b127 96bc 2a19 c9bc 2e1f f23c a7a8 273d
00000100: 2d8f dfba da20 583c 0b00 213d 529a 1e3d
00000110: 9dd9 babc 763f 073d 9f99 30bd bd53 a8bc
00000120: 2db2 c53c 9ba4 d43c 2584 06bd 4a5b 8dbc
00000130: 40a9 283d a380 fe3b 2cee 0b3d 38d5 843c
00000140: f222 c2bc 4faf 003d 9f2e dc3c a2b8 de3c
00000150: b727 28bc 1666 8bbc ca4e 0ebd 2e8f c5bc
00000160: 881a 39ba 760e b63c 00fc 13bd 5874 353d
00000170: c836 993c d755 1d3d c2dd fc3c e1c8 22bc
00000180: 4b92 183a f06a 173b 951f 9d3b e044 943b

embedding_item_mf.weight f4 [24, 4]
-0.05484641 0.0047942973 -0.010622155 0.029843647 -0.014651023 -0.040860612 0.005577599 0.030608855
-0.046617527 0.02237135 0.035828758 0.036590874 0.005836342 0.024528196 -0.04109245 -0.00815441
0.037386805 0.021717956 -0.0023594063 -0.014454975 -0.0061717285 0.030878475 0.031585798 -0.04722789
-0.046573788 0.004251943 0.023982953 0.033678282 0.01038079 -0.0292087 -0.0058351895 -0.045010798
0.015326541 -0.0095186625 -0.007392487 -0.046297822 -0.0101340655 -0.048461612 -0.039456554 0.010989776
-0.036209766 -0.0300594 -0.018586753 0.0059960755 0.040887617 -0.0032203489 0.02092735 0.041992422
-0.03885028 -0.0035323354 -0.019265046 -0.049346626 0.030027013 0.041495208 0.051796228 -0.026427664
0.025954813 -0.054814845 0.028339349 -0.018010046 0.014111514 0.016776 -0.023359453 -0.03573966
-0.00065967883 -0.020250486 -0.036042828 -0.0508195 0.024023073 -0.013884313 0.043925475 0.017252525
-0.017627396 -0.019380165 0.033040233 0.019398248 -0.045691334 -0.0018191217 -0.031117275 -0.010080727
0.017662179 -0.04287157 -0.022886312 -0.02484527 0.0069523836 0.0134142535 0.042602193 0.017184043
0.004834543 -0.024197787 0.03715662 -0.043109033 -0.011249282 -0.046454743 -0.031205157 0.0056741303
00000000: a1a6 60bd 7b19 9d3b 8c08 2ebc aa7a f43c
00000010: d80a 70bc 755d 27bd 4bc4 b63b 6cbf fa3c
00000020: 05f2 3ebd 1f44 b73c 2dc1 123d 50e0 153d
00000030: c93e bf3b 5bef c83c 8f50 28bd 139a 05bc
00000040: e822 193d dbe9 b13c 45a0 1abb 8fd4 6cbc
00000050: 363c cabb dbf4 fc3c 1c60 013d 0872 41bd
00000060: 28c4 3ebd e253 8b3b e677 c43c 3df2 093d
00000070: 3014 2a3c 1547 efbc 1e35 bfbb 3e5d 38bd
00000080: 2c1c 7b3c 2af4 1bbc ad3c f2bb c9a2 3dbd
00000090: 5a09 26bc af7f 46bd 329d 21bd 760e 343c
000000a0: b150 14bd 213f f6bc 3f43 98bc ba7a c43b
000000b0: c679 273d 7d0c 53bb d56f ab3c 3f00 2c3d
000000c0: 7921 1fbd c17e 67bb bbd1 9dbc b01f 4abd
000000d0: 36fb f53c e1f6 293d 4828 543d d47e d8bc
000000e0: 309f d43c 8885 60bd ec27 e83c ce89 93bc
000000f0: fb33 673c d26d 893c 535c bfbc c063 12bd
00000100: 4cee 2cba 59e4 a5bc a5a1 13bd 1c28 50bd
00000110: 09cc c43c 087b 63bc 33eb 333d 2b55 8d3c
00000120: 5467 90bc 27c3 9ebc 3255 073d 13e9 9e3c
00000130: d626 3bbd 986f eeba a8e9 febc a229 25bc
00000140: 46b0 903c 199a 2fbd 137c bbbc 4f88 cbbc
00000150: d2d0 e33b 75c7 5b3c a37f 2e3d 8dc5 8c3c
00000160: 166b 9e3b 703a c6bc 8a31 183d 1993 30bd
00000170: e94e 38bc 5447 3ebd f5a1 ffbc 0eee b93b

embedding_item_category.weight f4 [12, 4]
0.005636505 -0.019025536 0.03470121 -0.038318 0.025182063 -0.033545285 0.02035133 -0.035862386
0.02840104 -0.021288633 0.011203498 -0.014168415 0.026360182 -0.022379735 0.0083781 -0.02122196
0.022604939 -0.008419697 0.011057548 -0.010788655 0.016502446 -0.016646262 0.01959531 -0.0131342225
0.012719841 -0.025666779 0.011814143 -0.017442502 0.025554681 -0.031140786 0.0032837843 -0.016511496
0.013118649 -0.017971974 0.008562635 -0.0037043802 0.007968488 -0.021714455 0.010684727 -0.018663669
0.02479936 -0.03351203 0.012275239 -0.00587056 0.031640377 -0.0031299195 0.01550932 -0.021110654
00000000: 6eb2 b83b 71db 9bbc db22 0e3d 56f3 1cbd
00000010: 9d4a ce3c c866 09bd d5b7 a63c 70e4 12bd
00000020: 4ca9 e83c 8065 aebc e08e 373c a422 68bc
00000030: 4ff1 d73c b555 b7bc 4c44 093c add9 adbc
00000040: fe2d b93c c5f2 09bc b82a 353c e6c2 30bc
00000050: 2330 873c be5d 88bc 5886 a03c ec30 57bc
00000060: e166 503c 2343 d2bc 1b90 413c 94e3 8ebc
00000070: 0d58 d13c f61a ffbc c234 573b 1e43 87bc
00000080: 9aef 563c f639 93bc 4b4a 0c3c 30c5 72bb
00000090: 438e 023c 83e2 b1bc fe0e 2f3c 8de4 98bc
000000a0: 0728 cb3c e943 09bd 161e 493c d45d c0bb
000000b0: 5799 013d 561f 4dbb ce1a 7e3c 40f0 acbc

embedding_media_type.weight f4 [2, 4]
0.031842798 -0.03182046 -0.015712228 0.034741487 0.040562045 -0.028343245 -0.015535742 0.029054329
00000000: 986d 023d 2c56 02bd eeb6 80bc 174d 0e3d
00000010: 6324 263d 1830 e8bc a089 7ebc 5803 ee3c

embedding_channel_category.weight f4 [13, 4]
0.016236294 0.017831363 0.031117957 -0.026969252 0.023388399 0.033568077 0.018661596 -0.0076396526
0.010192425 0.031051448 0.025350804 -0.03780551 0.03156002 0.015121161 0.024708427 -0.02295702
-0.0028259456 -0.0030705289 -0.0018898945 0.0015232337 0.018653464 0.02881496 0.03090714 -0.01881647
0.01746498 0.029762605 0.02208805 -0.007343469 0.022338334 0.03605296 0.037208103 -0.047590155
0.021103026 0.010861176 0.024741804 -0.021857906 0.010052655 0.016533729 0.0069174385 -0.020320201
0.017273396 0.015429444 0.016727667 -0.027742641 0.011113916 0.031372633 0.020679554 -0.029633677
0.025470713 0.021897653 0.028863285 -0.013303459
00000000: fa01 853c 1413 923c 16eb fe3c 9fee dcbc
00000010: 0799 bf3c ae7e 093d 34e0 983c 0d56 fabb
00000020: 21fe 263c 9b5f fe3c 7dac cf3c f3d9 1abd
00000030: 1445 013d bfbe 773c 5469 ca3c 5c10 bcbc
00000040: 8033 39bb ed3a 49bb 56b6 f7ba 3ea7 c73a
00000050: 26cf 983c 5a0d ec3c f830 fd3c ff24 9abc
00000060: b812 8f3c b5d0 f33c 00f2 b43c 7ca1 f0bb
00000070: e2fe b63c 45ac 133d 8667 183d e5ed 42bd
00000080: 41e0 ac3c 13f3 313c 53af ca3c 5a0f b3bc
00000090: e4b3 243c be71 873c aeab e23b 8d76 a6bc
000000a0: f080 8d3c c7cb 7c3c 7608 893c 8944 e3bc
000000b0: 2417 363c 9780 003d 2b68 a93c 53c2 f2bc
000000c0: f5a7 d03c b562 b33c b272 ec3c c0f6 59bc

embedding_subscribers.weight f4 [101, 4]
-0.004769841 -0.007562686 -0.0042511565 0.0021317087 0.005816615 0.001374818 0.00046299948 0.0009181419
0.024669034 0.019831205 -0.02935948 -0.029155845 0.023332944 0.025795978 -0.024011523 -0.030738829
0.014815785 0.034938764 -0.022442989 -0.012464882 -0.005052038 -0.0007176386 0.0013571134 -0.0077097667
0.004971292 -0.0017765572 -0.00021686273 0.0029829787 0.022409474 0.008283106 -0.019957451 -0.023686146
-0.0022627048 8.377428e-05 -0.00016915744 0.003148977 -0.008537283 0.0058775786 -0.0045138136 -0.004703389
-0.00035257413 0.008101651 -0.0038034604 -0.0014033105 0.010106802 0.014847838 -0.019208297 -0.0039596665
0.03302512 0.031788573 -0.042254873 -0.028075919 0.012764386 0.010965761 -0.015864417 -0.008081961
0.002045247 0.00014948263 -0.00081593666 0.002146012 0.012474005 0.00084522035 -0.0054864474 -0.0005884165
0.008423808 -0.0043227724 0.0007076248 -0.0046119997 -0.0010710229 0.0015630764 -0.0023344057 0.0008680044
0.01655262 0.013559192 -0.021125745 -0.02317299 0.0037077335 -0.0006282094 -0.0009457945 0.0012294562
0.00013972423 -0.0015609994 -0.0012823973 -0.0003003476 0.022976661 0.002931165 -0.014083907 -0.015507145
0.007621505 -0.005043287 -0.0016580219 0.0061557186 0.013386584 0.02068311 -0.01302474 -0.019181838
-0.0023569353 0.0059520784 -0.004810524 0.005615697 0.0022325648 0.00021348972 -0.002277138 0.0023114316
0.028868033 0.028796794 -0.020784527 -0.003984709 -0.011905018 0.003846688 0.00073102186 0.00468051
-0.0056827394 0.00092888804 0.00676172 0.001758228 -0.0076885456 0.0026560384 -0.011261215 0.00067367597
-0.0056819986 -0.002890274 0.0068081883 -0.005829468 0.021673681 0.020560179 -0.030135289 -0.017646331
-0.0078071333 -0.0026978669 0.003105552 0.009163286 0.008895229 0.007597047 -0.00059208565 0.00097275444
0.0091623105 0.017415458 -0.007001399 -0.02026451 -0.0034480195 -0.0051550157 -0.0025032256 -0.002741271
0.005617481 0.0021148045 -0.0056404257 -0.0023402388 -0.0052560507 -0.0010804331 -0.00351912 0.007868334
-0.0021934058 0.0004685959 0.0017654165 -0.005100707 0.00310134 -0.0022166725 0.001908902 0.0011573915
0.017566502 0.03645641 -0.009876419 -0.01168293 -0.005920829 0.0032976912 -0.0014335667 0.0057431892
0.0011044902 0.007346682 0.0017776447 -0.0015103659 -0.00046954217 0.00798861 0.005592892 -0.0012857832
-0.0048273313 0.0011683955 0.007863493 -0.0035765988 -0.0025188576 -0.0046078265 0.0027369233 0.009331785
-0.0031301465 0.0068586217 0.009056815 0.006042754 -0.0042406376 -0.0045089484 0.0006908593 -0.005500869
0.0054274513 0.0017936879 0.00728839 0.0072273496 0.0054327464 0.00105054 -0.00039948052 0.0018522807
0.0017126403 -0.0020960802 0.0043648724 0.0040830546 0.0015348697 0.0024846562 0.0002548502 -0.00015719033
-0.0009834124 0.0023341542 0.0060311942 -0.011196137 0.006348341 -0.00015388658 -0.00073910266 -0.012244958
0.009054815 0.0058100736 0.0016113904 0.0028571312 -0.00038006232 0.0052674 -0.0036916633 -0.003047836
0.001784948 -0.002882419 0.015986815 0.007829661 0.0058301324 0.004289699 0.0033139118 0.0016863358
0.0013292052 0.008457707 0.0016685751 0.0014647682 3.984218e-05 0.01070268 0.0027199257 0.0024989606
-0.003151559 0.0002216387 0.005163179 -0.001474709 0.0027090358 0.017105885 -0.0012543384 -0.0064211106
0.0017342201 0.010002575 0.0023818256 0.0034699268 0.002672385 -0.0039688307 -0.006082354 0.0025377015
00000000: 544c 9cbb 69d0 f7bb 494d 8bbb 23b4 0b3b
00000010: 4e99 be3b 3d33 b43a bdbe f239 76af 703a
00000020: b716 ca3c 0d75 a23c 4b83 f0bc 3dd8 eebc
00000030: bb24 bf3c 1652 d33c d0b3 c4bc ffcf fbbc
00000040: e8bd 723c f31b 0f3d 5cda b7bc 8139 4cbc
00000050: 918b a5bb e91f 3cba 2be1 b13a 36a2 fcbb
00000060: 38e6 a23b 5edb e8ba a565 63b9 147e 433b
00000070: 1394 b73c ddb5 073c cf7d a3bc 7309 c2bc
00000080: e349 14bb f9af af38 db5f 31b9 115f 4e3b
00000090: f6df 0bbc b498 c03b 9de8 93bb e31e 9abb
000000a0: b3d9 b8b9 cabc 043c 7a43 79bb 49ef b7ba
000000b0: 0097 253c 5944 733c b85a 9dbc 17c0 81bb
000000c0: 5945 073d bc34 023d 7213 2dbd 78ff e5bc
000000d0: b721 513c bca9 333c 18f6 81bc 346a 04bc
000000e0: 8d09 063b 70be 1c39 95e4 55ba 1ba4 0c3b
000000f0: c55f 4c3c c791 5d3a a8c7 b3bb f63f 1aba
00000100: 0304 0a3c 0ba6 8dbb e57f 393a 4220 97bb
00000110: 9161 8cba 24e0 cc3a d4fc 18bb ca8a 633a
00000120: 5c99 873c 6027 5e3c e60f adbc 48d5 bdbc
00000130: 72fd 723b 6bae 24ba 32ef 77ba b425 a13a
00000140: f082 1239 739a ccba 1d16 a8ba f977 9db9
00000150: 8d39 bc3c ca18 403b 30c0 66bc ae11 7ebc
00000160: d1bd f93b 2842 a5bb fc51 d9ba e9b5 c93b
00000170: 6753 5b3c a06f a93c b865 55bc 3b23 9dbc
00000180: d076 1abb a709 c33b 9aa1 9dbb e103 b83b
00000190: 3950 123b 36dc 5f39 093c 15bb 637b 173b
000001a0: a77c ec3c 41e7 eb3c 5044 aabc 2992 82bb
000001b0: 440d 43bc b718 7c3b 0ca2 3f3a f75e 993b
000001c0: 4636 babb 9f80 733a 6b91 dd3b 5874 e63a
000001d0: 32f0 fbbb ee10 2e3b f680 38bc a199 303a
000001e0: 0f30 babb c06a 3dbb 3917 df3b 1f05 bfbb
000001f0: 018d b13c d26d a83c 48de f6bc 0a8f 90bc
00000200: fbd2 ffbb b2ce 30bb 8486 4b3b 9b21 163c
00000210: 4bbd 113c a6f0 f83b 3236 1bba 7200 7f3a
00000220: 841d 163c ddaa 8e3c fe6b e5bb c201 a6bc
00000230: 2bf8 61bb 68eb a8bb 280d 24bb e5a6 33bb
00000240: d912 b83b 8898 0a3b 52d3 b8bb b15e 19bb
00000250: f33a acbb 529d 8dba 09a1 66bb 2fea 003c
00000260: 3ebf 0fbb e1ad f539 8c65 e73a d523 a7bb
00000270: da3f 4b3b 9845 11bb 1f34 fa3a 9db3 973a
00000280: a0e7 8f3c 5153 153d b4d0 21bc c369 3fbc
00000290: 8303 c2bb 141e 583b 84e6 bbba 5d31 bc3b
000002a0: 8bc4 903a 6fbc f03b dcff e83a 78f7 c5ba
000002b0: e22c f6b9 a9e2 023c 9444 b73b ba87 a8ba
000002c0: 972e 9ebb d924 993a e1d5 003c 5f65 6abb
000002d0: 6b13 25bb 40fd 96bb f45d 333b 58e4 183c
000002e0: 2523 4dbb 4abe e03b 0963 143c 4b02 c63b
000002f0: 0cf5 8abb cdbf 93bb c81a 353a a240 b4bb
00000300: c3d8 b13b 2e1a eb3a 72d3 ee3b 67d3 ec3b
00000310: 2e05 b23b 46b2 893a 5e71 d1b9 3ac8 f23a
00000320: ac7a e03a 645e 09bb 3407 8f3b 25cb 853b
00000330: ae2d c93a 9dd5 223b 6a9d 8539 75d3 24b9
00000340: d8e5 80ba 9cf8 183b 53a1 c53b 0170 37bc
00000350: be05 d03b 9d5c 21b9 57c0 41ba 149f 48bc
00000360: a65a 143c 6e62 be3b 4a35 d33a b53e 3b3b
00000370: 1a43 c7b9 279a ac3b d5ef 71bb 34be 47bb
00000380: ebf4 e93a f7e6 3cbb c8f6 823c fa47 003c
00000390: b20a bf3b 9a90 8c3b 372e 593b 0a08 dd3a
000003a0: ba38 ae3a 3292 0a3c 17b4 da3a 77fd bf3a
000003b0: 371c 2738 4b5a 2f3c c840 323b 9ac5 233b
000003c0: 638a 4ebb af67 6839 e22f a93b 064b c1ba
000003d0: 148a 313b a421 8c3c 9d68 a4ba 2e68 d2bb
000003e0: c54e e33a d7e1 233c 6718 1c3b b667 633b
000003f0: 2e23 2f3b f70c 82bb 7c4e c7bb 914f 263b

fc_layers.0.weight f4 [64, 24]
0.006932088 0.0046946704 -0.0017483709 0.0033288705 -0.0014510511 0.0017804657 0.00015470304 -0.003048723
-0.005394958 -0.009451557 -0.009744432 0.001978886 -0.008446052 -0.005451007 0.0020692416 -0.005998918
-0.0013315547 -0.0071461936 -0.013919656 0.00041362704 0.0066617685 0.0006831367 -0.001389626 0.00904601
0.016895872 0.015069766 0.029925948 0.020863349 0.01459063 0.012702862 -0.017022671 0.02079589
0.018001579 -0.021761606 0.013291247 -0.017213687 0.040390693 -0.024863577 -0.018121552 0.03504529
0.036949858 0.018906811 0.023071669 -0.023405675 0.02262156 0.025904424 -0.034661356 -0.036586285
0.0041550132 0.002555177 0.00052952557 0.00065707805 -0.0018931625 -0.0008810236 -0.0020913067 -0.014425336
-0.0010853533 -0.0032455688 -0.0025987274 -0.00014892798 0.0018967766 -1.0699792e-05 0.003821934 0.000438204
-0.00033744844 0.0019112526 -0.003616065 -0.004898633 -0.013474741 -0.0036146557 -0.0020356965 0.000837749
-5.238003e-05 0.0013556397 4.116601e-05 -0.013505601 0.0065087182 -0.002541913 0.0019364438 -0.0036942007
0.0026574202 0.00040497512 -0.00035451303 0.008341285 0.004433164 0.002475827 -0.0054871817 -0.00807533
0.007030738 0.0039077313 0.0055249794 -0.007920888 -0.0019770288 -0.0066514984 0.009377573 0.0021128
0.024431963 0.018785503 0.028336398 0.024470288 0.014592005 0.031193038 -0.021461977 0.02102596
0.018809125 -0.04266684 0.015877483 -0.034619328 0.024419915 -0.015551858 -0.0066606198 0.032245446
0.026879432 0.033648603 0.048274413 -0.041671585 0.02174026 0.031608906 -0.03244691 -0.027353007
0.023384556 0.023269614 0.031015882 0.02585077 0.01939583 0.028268345 -0.011598598 0.013056776
0.031045966 -0.036006164 0.01784433 -0.029707082 0.04057107 -0.02793518 -0.009585211 0.023588594
0.02125953 0.026721545 0.032892928 -0.023544671 0.023304887 0.007936627 -0.039503288 -0.030547297
0.012784935 0.026982881 0.020757109 0.022833738 0.015751671 0.034878373 -0.025228623 0.030576274
0.0063616186 -0.028043944 0.017211737 -0.02175701 0.021575388 -0.02955055 -0.010104829 0.024478136
0.025127081 0.029387735 0.020987669 -0.020245455 0.025091836 0.017843476 -0.026699074 -0.032892622
-0.0039067958 -0.0005211664 0.00047476962 -0.01795431 -8.5704916e-05 -0.0034530435 -0.0064774742 -0.0024580993
0.011192067 0.0019355201 0.0057122833 -0.0039360025 -0.0030178376 0.0072632954 -0.00061935873 0.00929003
-0.0007002716 0.009654434 0.0042359303 0.004917464 -0.006741556 0.0015019824 -0.0006042837 0.0017560273
-0.0065805265 0.0021754536 -0.0019743873 -0.011115889 -0.003411693 0.0040057073 0.004008066 -0.0033942908
0.0011582201 0.0031591745 -0.00399707 0.0044645676 0.0038462388 0.0033465335 0.0014445493 0.0071991333
-0.010462528 -0.0011815628 0.005746848 0.001681515 -0.0035071226 0.0039465292 -0.0055859587 0.004689158
0.018640608 0.017752256 0.0047751404 0.020290485 0.0078153 0.017891854 -0.012768334 0.012510991
0.031736385 -0.029934982 0.02347712 -0.03326015 0.04455811 -0.024154155 -0.016127508 0.03217401
0.019564783 0.026898375 0.020985538 -0.017042413 0.020013805 0.02457892 -0.033660267 -0.021568304
0.035924405 0.008623758 0.027384136 0.02640629 0.03423066 0.03082102 -0.024151873 0.00013353396
0.020706404 -0.02159447 0.01813333 -0.018310938 0.03535114 -0.03595907 -0.014702004 0.03224167
00000000: 9226 e33b c0d5 993b 9829 e5ba 2e29 5a3b
00000010: 3231 beba 845e e93a c837 2239 16cd 47bb
00000020: 30c8 b0bb b4da 1abc 1ca7 1fbc 33b0 013b
00000030: 4f61 0abc 5c9e b2bb 1d9c 073b 9292 c4bb
00000040: 9087 aeba 9e2a eabb 450f 64bc 15dc d839
00000050: f74a da3b 8714 333a 1c24 b6ba b735 143c
00000060: 3669 8a3c 2ee7 763c 4327 f53c 9de9 aa3c
00000070: 8a0d 6f3c aa1f 503c 2173 8bbc 245c aa3c
00000080: 0c78 933c 6545 b2bc 88c3 593c b803 8dbc
00000090: b670 253d b3ae cbbc a673 94bc a68b 0f3d
000000a0: bc58 173d 75e2 9a3c cc00 bd3c 42bd bfbc
000000b0: da50 b93c 8435 d43c 11f9 0dbd 80db 15bd
000000c0: c726 883b c274 273b dccf 0a3a c33f 2c3a
000000d0: fe23 f8ba 7ef4 66ba 4e0e 09bb 3f58 6cbc
000000e0: 6a42 8eba 9cb3 54bb 694f 2abb 8d29 1cb9
000000f0: 439d f83a 4283 33b7 6a79 7a3b bfbe e539
00000100: 90eb b0b9 ff82 fa3a 81fb 6cbb b684 a0bb
00000110: 29c5 5cbc dce3 6cbb 5269 05bb 629c 5b3a
00000120: a1b2 5bb8 b8af b13a aba9 2c38 9946 5dbc
00000130: 1647 d53b 3996 26bb 46d0 fd3a 671a 72bb
00000140: 1d28 2e3b d752 d439 efdd b9b9 e3a9 083c
00000150: 1344 913b 7c41 223b d1cd b3bb 644e 04bc
00000160: 1b62 e63b 6d0c 803b e30a b53b 9dc6 01bc
00000170: 0a91 01bb d0f4 d9bb 64a4 193c e776 0a3b
00000180: 8a25 c83c 0ee4 993c bc21 e83c ea75 c83c
00000190: 4e13 6f3c 8b88 ff3c 07d1 afbc a23e ac3c
000001a0: 9815 9a3c 6dc3 2ebd 7f11 823c ffcc 0dbd
000001b0: 460c c83c 38cd 7ebc 5441 dabb cd13 043d
000001c0: 4132 dc3c 1ed3 093d 64bb 453d d3af 2abd
000001d0: a118 b23c 5778 013d 0de7 04bd 6a13 e0bc
000001e0: f890 bf3c eb9f be3c 0515 fe3c fec4 d33c
000001f0: 01e4 9e3c 0493 e73c 0c08 3ebc 16ec 553c
00000200: 1c54 fe3c 337b 13bd 462e 923c 445c f3bc
00000210: da2d 263d 52d8 e4bc 4a0b 1dbc de3c c13c
00000220: 7728 ae3c 24e7 da3c bcba 063d c1e0 c0bc
00000230: e4e9 be3c a008 023c 33ce 21bd 533e fabc
00000240: e777 513c 340b dd3c d00a aa3c d20d bb3c
00000250: a609 813c a0dc 0e3d 42ac cebc 187b fa3c
00000260: 2075 d03b 6abc e5bc a1ff 8c3c c23b b2bc
00000270: debe b03c ff13 f2bc ba8e 25bc 5f86 c83c
00000280: 4fd7 cd3c 8cbe f03c 55ee ab3c ccd9 a5bc
00000290: 658d cd3c 7b2c 923c 04b8 dabc 6aba 06bd
000002a0: 9404 80bb e39e 08ba 80ea f839 eb14 93bc
000002b0: 7abc b3b8 754c 62bb fe40 d4bb 1018 21bb
000002c0: ee5e 373c 47b1 fd3a 1b2e bb3b 95f9 80bb
000002d0: eac6 45bb f000 ee3b 765c 22ba 3635 183c
000002e0: 6e92 37ba a22d 1e3c 8fcd 8a3b ae22 a13b
000002f0: 45e8 dcbb 2bde c43a cb68 1eba 802a e63a
00000300: 75a1 d7bb 0e92 0e3b b964 01bb 6b1f 36bc
00000310: b696 5fbb 4f42 833b 1856 833b c072 5ebb
00000320: 6bcf 973a 270a 4f3b daf9 82bb 824b 923b
00000330: 2e11 7c3b 8451 5b3b 0857 bd3a b5e6 eb3b
00000340: 066b 2bbc abde 9aba 0e50 bc3b 4866 dc3a
00000350: c1d7 65bb e351 813b 6b0a b7bb 82a7 993b
00000360: 30b4 983c 2e6d 913c c878 9c3b 3b38 a63c
00000370: be0b 003c f091 923c 4632 51bc e6fa 4c3c
00000380: 03fe 013d 353a f5bc 1753 c03c cc3b 08bd
00000390: 9182 363d efde c5bc d61d 84bc e5c8 033d
000003a0: 5346 a03c fb59 dc3c dde9 ab3c 889c 8bbc
000003b0: fef3 a33c bb59 c93c 59df 09bd 03b0 b0bc
000003c0: 7825 133d aa4a 0d3c b254 e03c 0152 d83c
000003d0: 7335 0c3d 5d7c fc3c 26da c5bc 4005 0c39
000003e0: 7aa0 a93c e3e6 b0bc 598c 943c d200 96bc
000003f0: 5bcc 103d d149 13bd ade0 70bc d70f 043d

fc_layers.0.bias f4 [64]
-0.054924663 0.183494 -0.032185122 -0.06383662 0.14802957 0.057393942 0.1157167 -0.13472027
-0.07895154 0.055455748 0.13598485 -0.1647608 -0.1222788 0.21264376 0.20969456 -0.0045793178
0.19653778 -0.0059484793 -0.14613634 0.15502626 -0.12861575 0.16853489 -0.116083466 0.17843989
-0.051794127 0.1492132 0.23446035 -0.011374646 -0.14808312 -0.16249302 -0.005524111 -0.02458936
0.15862396 -0.03624122 -0.013646075 0.1507856 0.16806091 -0.057051443 0.093975656 0.14819828
-0.008624577 -0.044315908 -0.018124178 0.06440757 0.10415523 0.140711 0.15157424 0.19012395
0.13338824 -0.03402871 -0.010761345 -0.025174072 -0.099528134 0.079825185 -0.015012095 -0.1329892
-0.15415974 0.07751519 -0.07612556 0.13723059 0.08836511 -0.12757242 -0.008275619 -0.018185427
00000000: aff8 60bd dae5 3b3e 8cd4 03bd c6bc 82bd
00000010: 1095 173e e915 6b3d e1fc ec3d 1cf4 09be
00000020: 58b1 a1bd 9125 633d 9d3f 0b3e 0eb7 28be
00000030: 4f6d fabd 49bf 593e 2cba 563e 1a0e 96bb
00000040: 3341 493e 76eb c2bb c4a4 15be 34bf 1e3e
00000050: d9b3 03be 6994 2c3e 2bbd edbd f2b8 363e
00000060: 1426 54bd 58cb 183e 6016 703e b95c 3abc
00000070: 1aa3 17be 9264 26be 9a03 b5bb a06f c9bc
00000080: 526e 223e ac71 14bd c993 5fbc 8a67 1a3e
00000090: 2918 2c3e c6ae 69bd 4f76 c03d 4ac1 173e
000000a0: 194e 0dbc 9984 35bd 2879 94bc 1ee8 833d
000000b0: 564f d53d 8b16 103e 4736 1b3e daaf 423e
000000c0: ed96 083e b061 0bbd 5a50 30bc db39 cebc
000000d0: 68d5 cbbd 637b a33d 4af5 75bc 522e 08be
000000e0: 0ddc 1dbe 49c0 9e3d b8e7 9bbd 2d86 0c3e
000000f0: c4f8 b43d 58a2 02be 7696 07bc 9bf9 94bc

fc_layers.1.weight f4 [32, 64]
-0.0030133051 -0.0017048232 -0.008244671 0.009863509 0.018892298 0.008483692 0.0083485525 0.0066443454
-0.0017852802 0.019426411 0.023741495 0.008045564 0.0058068014 0.022649758 0.014986319 -0.004597164
0.014515242 0.00986492 -0.00015183227 0.006200378 -0.006533275 0.010525889 0.004485035 0.024532279
0.00019838025 0.021015652 0.01273099 0.00049020135 -0.002498169 -0.00075874897 -0.0048530195 -0.004429754
-0.0078090257 -0.00953455 -0.022910519 0.027075596 0.015358693 -0.0025696047 0.0067978012 0.00799561
0.0017150028 0.0045173937 0.0015736431 0.020422444 0.022883024 0.007961684 7.765484e-05 -0.0065314127
0.013920173 0.0010522578 0.0011632798 -0.0027038376 0.0017314109 0.013611425 -0.0009607371 0.006813048
0.0036132883 0.029744698 0.0037109365 0.023220036 0.015575468 -0.006753863 0.007067614 0.003518155
-0.0015912801 0.024951171 -0.00078205747 0.00062196364 0.032543756 0.04251366 0.016649649 -0.0045284363
0.0029524604 0.016765684 0.01869566 0.008065899 -0.0025394794 0.022433423 0.023105908 0.004742832
0.0340146 0.00016746273 -0.0080112405 0.03816796 -0.005284853 0.026632406 0.0076082246 0.018846503
-0.0017205958 0.045422893 0.032612454 -0.0020752342 -0.0032567563 0.0074707437 -0.006359186 -0.0068112933
0.022640795 0.0014704952 0.0009156917 0.017957252 0.032557193 0.010891505 0.0035856483 0.021214658
-0.0049740723 0.0009850176 0.0027807313 0.027570823 0.021609904 0.02482978 0.03549279 0.023624241
0.02584073 0.0065819724 -0.0023335835 -0.0001552825 0.0106542045 0.019346282 -0.002204588 -0.0011098075
0.011726769 0.0119604245 -0.008046069 0.02865101 0.02986113 -0.0033801107 -0.0056290044 -0.0068554133
-0.014040133 -0.0014269329 -0.003835115 -0.0035261393 -0.013850626 0.0006551766 0.00049860985 0.0066722096
-0.0017765315 0.0076009976 -0.010646638 0.0020045508 -0.0045664473 -0.0028982286 0.00058587454 -0.0030650184
0.0009588769 -0.00035173702 -0.0035324488 0.0024597931 0.010958505 -0.0040303995 0.0018716902 -0.00047864587
-0.007295115 -0.00029420553 0.004814898 -0.00574908 -0.0008080545 0.0011207812 0.005175398 -0.007140629
0.006584428 -0.0050699804 0.001068179 0.0031211681 0.019826656 0.007835405 0.0021223084 0.0075030723
0.0037269269 0.0027879043 -0.0059100017 -0.0008247938 0.0026697512 -0.0023991487 0.0055803126 -0.0022821298
0.0008741348 -0.0011553449 -0.005056821 -0.008694127 0.0015394927 7.056922e-06 0.0009770517 -0.0029532234
-0.0020264129 0.0025211973 0.00032008486 0.0007990259 0.007098977 -0.00022054925 -0.0019304177 -0.0020926092
0.008377017 0.013135303 -0.0085037695 -0.0050906874 0.0122533925 0.014390932 0.00069666037 -0.004876001
-0.0010129714 0.008430068 0.004270525 -0.00033152226 0.0027004792 0.0075573428 0.014448844 -0.0040009627
0.009740305 0.00047852632 -0.0021784315 -0.0005938886 0.001600418 0.0060538063 0.009512988 -0.0020435462
-0.005491598 0.0006697953 -0.0049099214 0.0016068127 0.0025158213 -0.003106168 0.0072213276 0.003772757
-0.00085013756 -0.0012212731 0.00812099 0.013476711 0.0068180263 -0.011431003 0.0030276547 0.00991246
0.0023138626 -0.008352049 0.0004104008 0.0040087067 0.003137802 0.008732658 0.0035961783 -0.0011406695
0.015208433 -0.004837217 -0.004794801 0.010935003 0.008319419 -0.005695584 0.0037881085 -0.0085275415
-0.004272519 0.00396977 3.7920297e-05 0.0019965996 0.007593328 0.008434425 -0.0011451754 -0.0006956539
00000000: df7a 45bb 6074 dfba a814 07bc 8e9a 213c
00000010: 05c4 9a3c 2fff 0a3c 5ec8 083c cfb8 d93b
00000020: 1000 eaba 2324 9f3c 867d c23c 8bd1 033c
00000030: fb46 be3b fc8b b93c 2d89 753c cfa3 96bb
00000040: 56d1 6d3c 79a0 213c 2a35 1fb9 8a2c cb3b
00000050: 1515 d6bb c774 2c3c 33f7 923b ebf7 c83c
00000060: 4b04 5039 0429 ac3c a495 503c db80 003a
00000070: 52b8 23bb c8e6 46ba 1406 9fbb 7827 91bb
00000080: dbe2 ffbb cd36 1cbc d7ae bbbc a4cd dd3c
00000090: 07a3 7b3c d066 28bb 17c0 de3b 0500 033c
000000a0: f2c9 e03a a506 943b b342 ce3a f84c a73c
000000b0: 2e75 bb3c b971 023c a0da a238 7605 d6bb
000000c0: 7011 643c eaeb 893a 3179 983a de32 31bb
000000d0: 82f0 e23a 7402 5f3c fad9 7bba fd3f df3b
000000e0: ebcc 6c3b 27ab f33c 2f33 733b f237 be3c
000000f0: 3f30 7f3c 824f ddbb 7197 e73b d990 663b
00000100: 8092 d0ba 6666 cc3c fd02 4dba 460b 233a
00000110: 9a4c 053d ce22 2e3d d864 883c 4763 94bb
00000120: 117e 413b 3058 893c a427 993c d526 043c
00000130: 656d 26bb 4cc6 b73c 9a48 bd3c c269 9b3b
00000140: e552 0b3d ef98 2f39 9441 03bc 0256 1c3d
00000150: 8f2c adbb 342c da3c 6a4e f93b fb63 9a3c
00000160: 9d85 e1ba 5b0d 3a3d a394 053d a700 08bb
00000170: 4e6f 55bb 24cd f43b b860 d0bb 4531 dfbb
00000180: 3079 b93c a2bd c03a 080b 703a 161b 933c
00000190: b15a 053d 4872 323c 32fd 6a3b 5dca ad3c
000001a0: 8bfd a2bb b51b 813a ee3c 363b 35dc e13c
000001b0: 4107 b13c d367 cb3c e360 113d a087 c13c
000001c0: f0af d33c 96ad d73b 09ef 18bb 54d3 22b9
000001d0: f98e 2e3c 187c 9e3c d97a 10bb f676 91ba
000001e0: a221 403c a8f5 433c a9d3 03bc 86b5 ea3c
000001f0: 549f f43c d984 5dbb 8373 b8bb 60a3 e0bb
00000200: 9608 66bc ec07 bbba 8e56 7bbb cd16 67bb
00000210: bced 62bc 28c0 2b3a 24b5 023a 8da2 da3b
00000220: 81da e8ba ca11 f93b 3d6f 2ebc c85e 033b
00000230: 23a2 95bb 35f0 3dbb 6095 193a 7ade 48bb
00000240: 245d 7b3a 5869 b8b9 a880 67bb 7b34 213b
00000250: 4d8b 333c 7111 84bb 8053 f53a c3f2 fab9
00000260: dc0b efbb 993f 9ab9 4bc6 9d3b c762 bcbb
00000270: 9fd3 53ba 2de7 923a 6396 a93b f0fb e9bb
00000280: 2fc2 d73b 1422 a6bb 2402 8c3a 838c 4c3b
00000290: 836b a23c 1260 003c 6d16 0b3b 55dc f53b
000002a0: 753f 743b 46b5 363b b0a8 c1bb fa36 58ba
000002b0: fef6 2e3b 093b 1dbb 0edb b63b c98f 15bb
000002c0: 3226 653a f16e 97ba b0b3 a5bb d071 0ebc
000002d0: cec8 c93a 80ca ec36 6a10 803a de8a 41bb
000002e0: 91cd 04bb ac3a 253b 10d1 a739 b875 513a
000002f0: 899e e83b 3d43 67b9 1206 fdba 2824 09bb
00000300: c23f 093c 7435 573c 6553 0bbc c8cf a6bb
00000310: 74c2 483c f2c7 6b3c 16a0 363a dcc6 9fbb
00000320: aec5 84ba 451e 0a3c c3ef 8b3b 2ad0 adb9
00000330: 86fa 303b 96a3 f73b d8ba 6c3c 821a 83bb
00000340: cd95 1f3c b7e2 fa39 04c4 0ebb 30af 1bba
00000350: 1ec5 d13a 025f c63b 5ddc 1b3c 04ed 05bb
00000360: ddf2 b3bb 3495 2f3a 68e3 a0bb b09b d23a
00000370: 7ae0 243b da90 4bbb e3a0 ec3b 5c40 773b
00000380: c4db 5eba 2013 a0ba e70d 053c 6ccd 5c3c
00000390: c069 df3b 1a49 3bbc 9e6b 463b df67 223c
000003a0: 2ca4 173b 08d7 08bc 102b d739 785b 833b
000003b0: 95a3 4d3b 6c13 0f3c dcad 6b3b 8482 95ba
000003c0: cb2c 793c 8481 9ebb b51d 9dbb ba28 333c
000003d0: 2c4e 083c 06a2 babb ea41 783b 1ab7 0bbc
000003e0: 7d00 8cbb d814 823b 9c0c 1f38 62d9 023b
000003f0: 74d1 f83b 8b30 0a3c b619 96ba 8b5c 36ba

fc_layers.1.bias f4 [32]
0.11147853 0.08091155 -0.056077763 0.00035420945 -0.017312886 -0.02644014 -0.032608226 0.11814469
0.098648556 -0.049253747 0.08321607 -0.0060516186 -0.042484894 0.13865495 0.15245315 -0.019755982
0.007987004 -0.0058035906 0.11976229 -0.07157224 -0.0025903925 -0.056503933 0.1300952 -0.067377366
-0.005169874 -0.09130982 -0.0067702774 0.16474883 -0.061666947 0.13997151 -0.057167508 0.050800405
00000000: db4e e43d f4b4 a53d ccb1 65bd 30b5 b939
00000010: c1d3 8dbc fe98 d8bc 3490 05bd d8f5 f13d
00000020: 4108 ca3d 4cbe 49bd 306d aa3d a84c c6bb
00000030: a404 2ebd 90fb 0d3e ae1c 1c3e 4cd7 a1bc
00000040: ecdb 023c 0c2c bebb ee45 f53d 7794 92bd
00000050: 93c3 29bb ab70 67bd ad37 053e 25fd 89bd
00000060: 0c68 a9bb a500 bbbd 34d9 ddbb ebb3 283e
00000070: 7b96 7cbd b154 0f3e 7a28 6abd 1614 503d

fc_layers.2.weight f4 [16, 32]
-0.0019513494 -0.0030026152 -0.0016427682 0.0033452928 0.0017348218 0.0038074031 0.009208514 -0.003578022
0.0068428563 -0.0027742537 0.0044193207 0.0010260788 -0.0040748185 -0.002523005 -0.013018721 0.004996138
-0.007920583 0.0004860529 -0.0021957266 -0.006192869 0.0008828347 0.0010392932 0.0027418535 -0.0034563711
0.00035256174 -0.0036903603 3.9857186e-05 -0.004062606 -0.013787373 -0.0055166 0.0024516564 0.0025626922
0.0009904334 -0.006455133 -0.0026540353 0.0037821932 -0.0041789436 0.0021034833 0.0077202762 -0.0074940715
-0.004425488 0.006458773 -0.0063101384 0.006922333 0.00085166283 -0.0003882479 0.00085515896 0.005988776
0.014022436 -0.0060965265 0.014079457 -0.00061204174 0.0026083637 -0.008765065 0.0011941415 0.0073353606
-0.0051117395 0.0037428455 -0.00051997404 -0.0027950304 4.1169355e-05 -0.0039970884 -0.009700891 -0.003576242
0.042293735 0.05264719 0.0007201985 0.012763429 0.0019494398 -0.0040922887 -0.0027382888 0.052725904
0.055175193 0.00441534 0.05795489 -0.013216633 0.004313887 0.06679077 0.047802616 0.005095002
0.008451611 0.0033343749 0.03781469 -0.0014793796 -0.008355793 -0.0073691737 0.036616508 -0.0009847283
0.0022624934 0.01056468 -0.009827281 0.03385645 0.010565512 0.075598635 -0.009171804 0.057515934
-0.0012329468 -0.004979302 0.0050864103 0.0046427934 0.0067203688 -0.00284856 0.0021337878 0.0015846426
0.0035929112 -0.003302439 -0.0008169272 -0.0009684171 0.006081492 -0.0008450066 0.013783936 -0.001043418
-0.007965355 0.005463402 0.00028061314 0.008029902 0.0037867506 -0.0023459673 0.0033739365 -0.0051410855
-0.00036420132 -0.0022092774 0.0037328573 0.008248718 -0.004818908 0.00030264613 0.0019484863 0.0031649177
0.03552795 0.04396581 0.0045229495 0.00991899 0.01056595 0.0046290783 -0.0035821612 0.044689104
0.05185942 0.0077447346 0.05975863 -0.003242973 2.7557067e-05 0.04989692 0.0538278 0.0026324135
0.0046104565 0.0073368186 0.06302871 0.0007074948 0.019781183 -0.00051953195 0.062894516 0.0055211456
0.006312079 0.0049582007 -0.001299138 0.06436164 0.008458747 0.06409094 0.003415534 0.060919233
0.007457424 0.004332811 0.0037099188 -0.0050255503 -0.0056507885 0.0065523675 -0.0037965886 0.00049594534
0.0007413929 0.003295967 0.0030672855 0.011445321 0.0027513772 -0.0032534667 0.0043340293 -0.0107749365
-0.009265313 0.010655677 -0.004399124 0.0017366713 -0.0028097155 0.00052588433 0.0018953291 -0.0014712856
-0.001875388 -0.006113125 0.004598129 0.0016405676 -0.0069086137 -0.0030936175 -0.0016917526 0.001120844
0.0040089358 0.0051694526 0.000598638 -0.014154284 -0.00029036886 -0.002915286 0.0033000323 -0.0045940266
-0.0072278716 -0.008404555 0.0036112804 -0.0025766338 0.0069729025 0.0047834897 -0.0057740645 -0.0049270643
0.0049721077 -0.0021029704 -0.0011051035 0.004876599 -0.004479963 0.00026692767 0.013496406 -0.0026156108
-0.0028020844 0.005719186 -0.004108089 0.0028880704 -0.008143724 -0.004607839 -0.010815277 -0.003601592
0.0005650121 0.0024157106 0.010111563 -0.00051604456 0.00090924033 0.0023584063 0.006859928 0.00042265575
-0.0025304419 0.0018192132 -0.012194093 0.019196488 -0.008417267 -0.010433414 -0.008272155 -0.0009637099
0.0009468031 0.0015468575 0.0026290892 -0.0029897382 -0.0006712872 0.006116136 -0.0076377564 0.0054674153
-0.003596671 -0.0024528818 -0.014339962 -0.008812416 -0.0033440087 -0.0073248097 0.00265282 -0.0050834925
00000000: 6cc4 ffba 86c7 44bb 2752 d7ba b33c 5b3b
00000010: f662 e33a a085 793b 4fdf 163c 3f7d 6abb
00000020: 0a3a e03b 41d0 35bb f3cf 903b 7e7d 863a
00000030: 0e86 85bb 0059 25bb 794c 55bc a5b6 a33b
00000040: 55c5 01bc ead4 fe39 2ee6 0fbb 8ded cabb
00000050: 096e 673a e538 883a abb0 333b 4984 62bb
00000060: 09d8 b839 f9d9 71bb 542c 2738 9c1f 85bb
00000070: 6fe4 61bc 98c4 b4bb f8ab 203b d7f2 273b
00000080: 6ed1 813a 9585 d3bb 53ef 2dbb acde 773b
00000090: 85ef 88bb 98da 093b 5ffa fc3b d490 f5bb
000000a0: af03 91bb 1da4 d33b 47c5 cebb bdd4 e23b
000000b0: 2042 5f3a c08d cbb9 bf2c 603a 7f3d c43b
000000c0: 5cbe 653c 5fc5 c7bb 86ad 663c 6d71 20ba
000000d0: 15f1 2a3b 599b 0fbc bd84 9c3a 775d f03b
000000e0: 6180 a7bb 874a 753b de4e 08ba d42c 37bb
000000f0: 42ad 2c38 02fa 82bb 7cf0 1ebc 625f 6abb
00000100: 323c 2d3d 94a4 573d b4cb 3c3a b41d 513c
00000110: 5884 ff3a 9b18 86bb dd74 33bb 1ef7 573d
00000120: 62ff 613d 8eae 903b 1b62 6d3d 948a 58bc
00000130: 825b 8d3b 99c9 883d adcc 433d f9f3 a63b
00000140: a078 0a3c 8785 5a3b 94e3 1a3d bee7 c1ba
00000150: bce6 08bc 1c79 f1bb 31fb 153d 0012 81ba
00000160: 5746 143b 7b17 2d3c 9b02 21bc 10ad 0a3d
00000170: f81a 2d3c 75d3 9a3d 5645 16bc d495 6b3d
00000180: d49a a1ba 6a29 a3bb e7ab a63b 9322 983b
00000190: 8a36 dc3b e8ae 3abb 05d7 0b3b c8b3 cf3a
000001a0: 0c77 6b3b bc6d 58bb 0e27 56ba 5fdd 7dba
000001b0: 4147 c73b 6f83 5dba 05d6 613c 4cc3 88ba
000001c0: 1f81 02bc 5606 b33b 421f 9339 da8f 033c
000001d0: 222b 783b cdbe 19bb 431d 5d3b 8d76 a8bb
000001e0: 46f2 beb9 86c9 10bb f4a2 743b a225 073c
000001f0: eee7 9dbb 7aac 9e39 5a64 ff3a 826a 4f3b
00000200: c185 113d 7e15 343d 4035 943b 4283 223c
00000210: ce1c 2d3c 86af 973b b1c2 6abb ec0b 373d
00000220: 8b6a 543d 8bc7 fd3b 77c5 743d 0f88 54bb
00000230: 5a2a e737 b660 4c3d 8a7a 5c3d 9284 2c3b
00000240: 5013 973b b269 f03b 3215 813d 2c77 393a
00000250: 260c a23c 3331 08ba d7ce 803d baea b43b
00000260: 8ed5 ce3b 6778 a23b d647 aaba 09d0 833d
00000270: 8e96 0a3c 1c42 833d 27d7 5f3b 7286 793d
00000280: 685d f43b 41fa 8d3b 1c22 733b 5fad a4bb
00000290: 402a b9bb 3eb5 d63b 30d0 78bb 5402 023a
000002a0: 095a 423a 2601 583b 8304 493b 2885 3b3c
000002b0: 7350 343b 1d38 55bb 7904 8e3b 5c89 30bc
000002c0: 8acd 17bc 2695 2e3c 8726 90bb 05a1 e33a
000002d0: 3423 38bb 80db 093a b16c f83a 27d8 c0ba
000002e0: 94cf f5ba 9c50 c8bb e7ab 963b 5008 d73a
000002f0: a761 e2bb 4abe 4abb ccbd ddba 49e9 923a
00000300: 645d 833b 8364 a93b ebed 1c3a 5fe7 67bc
00000310: a63c 98b9 620e 3fbb 5b45 583b 7d89 96bb
00000320: c8d7 ecbb 42b3 09bc 3bab 6c3b bedc 28bb
00000330: f27c e43b d2be 9c3b 5d34 bdbb 3673 a1bb
00000340: 10ed a23b fdd1 09bb 1fd9 90ba e1cb 9f3b
00000350: a7cc 92bb 6df2 8b39 0820 5d3c ab6a 2bbb
00000360: 2da3 37bb 0268 bb3b 269d 86bb c845 3d3b
00000370: 416d 05bc 5bfd 96bb 8f32 31bc b008 6cbb
00000380: 521d 143a e650 1e3b f8aa 253c 2a47 07ba
00000390: 165a 6e3a 7e8f 1a3b 3fc9 e03b e597 dd39
000003a0: c5d5 25bb aa72 ee3a bcc9 47bc f441 9d3c
000003b0: 94e8 09bc e9f0 2abc ef87 07bc 7aa1 7cba
000003c0: e132 783a edbf ca3a cc4c 2c3b 7cef 43bb
000003d0: 52f9 2fba de69 c83b 2546 fabb 0128 b33b
000003e0: 20b6 6bbb 87c0 20bb 29f2 6abc f461 10bc
000003f0: 2827 5bbb f504 f0bb efda 2d3b 6d93 a6bb

fc_layers.2.bias f4 [16]
-0.12604597 -0.12838343 0.10669136 -0.13910763 0.19091338 -0.080624424 -0.0017357027 -0.08884337
0.20722695 0.113129474 0.12943298 -0.118955396 -0.027761417 0.08999353 0.20267025 -0.08110323
00000000: 3212 01be f276 03be 0081 da3d 3b72 0ebe
00000010: cc7e 433e 6b1e a5bd 8580 e3ba 83f3 b5bd
00000020: 4d33 543e 6db0 e73d 148a 043e e39e f3bd
00000030: e96b e3bc 874e b83d ca88 4f3e 7319 a6bd

fc_layers.3.weight f4 [8, 16]
0.0016319802 -0.0013725257 0.06385471 -0.0036012044 0.06043291 -0.009353872 -0.0021922293 0.003950854
0.06101293 0.05352382 0.05965629 -0.0138786975 0.0005669179 0.061166294 0.062667504 -0.018617056
0.0030398897 0.0007870011 0.031597015 -0.001003927 0.06189679 0.008112479 -0.0049320203 -0.012392952
0.06904259 0.067298464 0.05436061 -0.00058015867 -0.0018351169 0.06571766 0.064190336 0.0059726257
0.00052406883 -0.0035626474 0.068363994 0.0051182103 0.07065958 0.0015604547 -0.014527277 0.0021257936
0.054027542 0.06473803 0.034121584 -0.0051855273 0.0028910304 0.0322119 0.044982597 0.009462967
0.001051164 -0.007015322 0.029483244 0.002406964 0.021015834 0.0031186468 0.0056119324 -0.0027888797
0.02407047 0.028641636 0.037499785 -0.009337927 -0.006065834 0.023486113 0.037645288 0.012073635
0.0076502273 0.002719867 0.010161333 -0.000324966 0.010394845 0.0073501305 -0.008671491 -0.0030424688
0.020944696 0.014131835 0.015780788 0.010022352 -0.0073275995 0.014051694 0.008603284 0.0022380727
-0.0010846081 -0.002539762 0.05516802 -0.0034295742 0.027844783 0.0042535416 0.011016323 0.00497435
0.047060218 0.04953699 0.042635985 -0.002789503 0.011006549 0.047676165 0.04374291 0.0009385418
-0.00021688138 -0.0042376034 -0.005345378 -0.00545352 -0.0037393773 -0.004241381 0.006265874 -0.0041886494
0.0017733435 0.002097336 0.0034076525 0.00402372 0.0055446844 0.0055610044 -0.0059305956 -0.004289472
-0.0021033215 -0.013786115 0.061093893 -0.006788424 0.06046651 0.0014126508 -0.0032320756 -0.0052186484
0.02900144 0.0709457 0.057533406 0.011945527 -0.0042307996 0.057424657 0.074768946 -0.0021085937
00000000: 2be8 d53a 52e6 b3ba 42c6 823d 2f02 6cbb
00000010: 8088 773d fc40 19bc 81ab 0fbb 2a76 813b
00000020: b2e8 793d cb3b 5b3d 275a 743d 7a63 63bc
00000030: 379d 143a 8289 7a3d d257 803d cc82 98bc
00000040: e338 473b c04e 4e3a df6b 013d 3396 83ba
00000050: 7d87 7d3d 34ea 043c c99c a1bb cf0b 4bbc
00000060: 3466 8d3d c7d3 893d 3ba9 5e3d ca15 18ba
00000070: 4e88 f0ba fb96 863d 3976 833d 04b6 c33b
00000080: aa61 093a 4e7b 69bb 6c02 8c3d a9b6 a73b
00000090: f8b5 903d 2c88 cc3a d103 6ebc e650 0b3b
000000a0: fc4b 5d3d 5f95 843d 13c3 0b3d 5beb a9bb
000000b0: 7177 3d3b a0f0 033d ac3f 383d 8f0a 1b3c
000000c0: 36c7 893a c9e0 e5bb d886 f13c 28be 1d3b
000000d0: 6629 ac3c 3662 4c3b 4de4 b73b a3c5 36bb
000000e0: 6f2f c53c dda1 ea3c 6099 193d 1bfe 18bc
000000f0: e7c3 c6bb f365 c03c f231 1a3d 7fd0 453c
00000100: c2ae fa3b cc3f 323b b87b 263c 3360 aab9
00000110: 244f 2a3c 5dd9 f03b df12 0ebc 2864 47bb
00000120: 3694 ab3c 3689 673c b646 813c cb34 243c
00000130: 5c1c f0bb 1439 663c caf4 0c3c a1ac 123b
00000140: 6929 8eba 2372 26bb ddf7 613d b5c2 60bb
00000150: be1a e43c 4b61 8b3b cf7d 343c dfff a23b
00000160: 37c2 403d 4ce7 4a3d 12a3 2e3d 18d0 36bb
00000170: d054 343c 1548 433d c42b 333d 7908 763a
00000180: a76a 63b9 98db 8abb 4828 afbb 71b3 b2bb
00000190: 5710 75bb 48fb 8abb f651 cd3b f040 89bb
000001a0: 896f e83a 7673 093b ec52 5f3b 69d9 833b
000001b0: 2fb0 b53b 1639 b63b 7155 c2bb b38e 8cbb
000001c0: e1d7 09bb 28df 61bc 973d 7a3d 6e71 debb
000001d0: bbab 773d b228 b93a 3bd1 53bb 3201 abbb
000001e0: 6e94 ed3c fb4b 913d 26a8 6b3d 2cb7 433c
000001f0: 85a2 8abb 1e36 6b3d 7620 993d 5530 0abb

fc_layers.3.bias f4 [8]
0.25619003 0.2547532 0.18732242 0.057957765 0.06977434 0.21658969 -0.20132074 0.118943825
00000000: 572b 833e 036f 823e 73d1 3f3e 1f65 6d3d
00000010: d9e5 8e3d b0c9 5d3e 0627 4ebe d298 f33d

affine_output.weight f4 [1, 12]
0.08090214 0.065106824 0.06447778 0.051754102 0.04700835 0.059306342 0.0001137374 0.062284533
-0.038477395 -0.028739162 -0.044938475 -0.052161545
00000000: 05b0 a53d ba56 853d ed0c 843d 1cfc 533d
00000010: d48b 403d 35eb 723d 4d86 ee38 111e 7f3d
00000020: 799a 1dbd 646e ebbc 6811 38bd 58a7 55bd
